checkpoint_actor.pth (torch_old, 541353 bytes, 6 tensors)

fc1.weight f4 [400, 33]
0	0x3dbcc0d9	0.0921647
1	0xbbd8dae5	-0.006617891
2	0xbcb62849	-0.022236006
3	0xbd1d809e	-0.038452737
4	0xbd099774	-0.033591703
5	0x3df265a5	0.118357934
6	0x3c0985dd	0.008393732
7	0xbc1f7ec5	-0.009734814
8	0x3ca97f3a	0.02069055
9	0xbd0c3627	-0.03423133
10	0xbba3b214	-0.004995594
11	0xbd0faa58	-0.03507456
12	0x3bc7f6e0	0.006102428
13	0xbc43d143	-0.011951747
14	0xbd63339d	-0.055469144
15	0x3d760268	0.06006089
16	0x3c18d650	0.00932844
17	0x3ba403f8	0.005005356
18	0xbddebd4a	-0.10875948
19	0x3d5b1661	0.05348814
20	0x3ceb8dd5	0.028754154
21	0xbd3f99c1	-0.04677749
22	0x3de268f4	0.110551745
23	0xbcb0e57b	-0.0215938
24	0xbd6f9ee1	-0.058501128
25	0x3d046851	0.032326046
26	0x3d990afd	0.07472799
27	0xbe026f62	-0.12737802
28	0xbceff440	-0.029291272
29	0xbcabd1c3	-0.020974046
30	0x3d8b07f0	0.06788623
31	0xbcf089d7	-0.029362602
32	0xbec8495d	-0.39118472
33	0xbe4124d8	-0.18861711
34	0xbdb92d2f	-0.09041821
35	0x3d2a7b68	0.041621596
36	0xbcce4c2f	-0.025182812
37	0xbdcefa3d	-0.10106323
38	0x3d6817d5	0.056663353
39	0x3d1844c1	0.037174944
40	0x3db9e403	0.09076693
41	0xbde1f009	-0.11032111
42	0x3da97670	0.08274543
43	0x3d428b7f	0.047496315
44	0x3d5fe2b3	0.054659557
45	0xbdeb5e8b	-0.11492642
46	0xbd7d95e0	-0.06191051
47	0x3d99d311	0.07510961
48	0xbc3b602b	-0.011436502
49	0x3d1bae52	0.03800804
50	0xbd6a24a5	-0.057163853
51	0x3d858c6f	0.06520926
52	0xbc96b72c	-0.01839789
53	0xbd941879	-0.0723123
54	0x3c9bbea2	0.0190118
55	0xbe9f8a7a	-0.31160337
56	0x3d7cb97d	0.061700333
57	0xbdebd3d1	-0.1151501
58	0x3c8220da	0.015884805
59	0x3e0810f6	0.1328772
60	0x3c03aa6d	0.008036238
61	0xbb2021a3	-0.0024434112
62	0xbd3b6035	-0.045746047
63	0x3c460eba	0.012088472
64	0xbd102a4e	-0.035196595
65	0x3e33de6f	0.1756532
66	0x3e40b6ff	0.18819807
67	0xbcfb7a23	-0.030697888
68	0xbda6860a	-0.08131035
69	0x3bfc7a6c	0.0077050235
70	0x3dae7e59	0.08520193
71	0xbdc1fd85	-0.09472183
72	0xbd84dabe	-0.06487034
73	0xbe341924	-0.17587715
74	0xbd749871	-0.059715692
75	0x3c1c6450	0.009545401
76	0x3dab9614	0.083782345
77	0xbc4c2187	-0.012459165
78	0x3d2778d2	0.040886708
79	0xbd274569	-0.04083768
80	0x3d246686	0.040136836
81	0xbcb65a66	-0.022259902
82	0x3d68225d	0.056673396
83	0xbc94f39b	-0.018182566
84	0x3e0f4098	0.13989484
85	0xbcd3f819	-0.025875138
86	0x3c3bda18	0.011465572
87	0xbc9e1a2c	-0.01929959
88	0xbd710963	-0.058846842
89	0xbd8940cd	-0.06701813
90	0x3d0222dc	0.031771526
91	0xbd8c76df	-0.0685861
92	0xbca84f7a	-0.02054571
93	0x3d66f9a8	0.056390435
94	0x3d71a578	0.058995694
95	0xbcc9f1c3	-0.024651414
96	0xbc238819	-0.009981179
97	0x3d05b049	0.03263882
98	0x3f1ccea7	0.61252826
99	0xbcea985b	-0.028637102
100	0x3d6dbc99	0.05804119
101	0xbda08aab	-0.07838949
102	0x3ca80168	0.020508483
103	0xbca3b7e8	-0.019985154
104	0xbd0ee48b	-0.034885924
105	0xbdff9873	-0.12480249
106	0x3d0ce80a	0.034400977
107	0xbd1ba48d	-0.037998725
108	0x3e38bd3b	0.18040936
109	0x3d7f0f1f	0.06227028
110	0xbd14cea0	-0.036329865
111	0xbc17e1f1	-0.009270177
112	0x3dd01e99	0.10162086
113	0xbd1624c5	-0.03665616
114	0x3c5caaf3	0.013468492
115	0xbc09838d	-0.008393181
116	0x3c417b1b	0.011809136
117	0x3d58e333	0.05295105
118	0xbd2fd3b9	-0.042926524
119	0x3c999973	0.018749928
120	0x3d562424	0.05228056
121	0x3c531786	0.012884026
122	0x3d07eec4	0.03318669
123	0xbbb081a7	-0.0053865495
124	0xbd82f5fd	-0.06394575
125	0xbdcc5d0a	-0.09978683
126	0xbddc4bec	-0.107566684
127	0xbcf4d420	-0.029886305
128	0x3c1410d4	0.009037215
129	0x3d9c9a54	0.07646623
130	0x3d2957a7	0.041343357
131	0xbef552ef	-0.47914836
132	0x3dc9727e	0.09836291
133	0xbdd6afbb	-0.10482737
134	0x3d00ea52	0.031473465
135	0x3c81c1e5	0.015839526
136	0x3e46c780	0.1941204
137	0x3d8aa1b4	0.06769124
138	0x3dd711da	0.10501452
139	0xbd60a73a	-0.05484698
140	0xbcd6a5a4	-0.02620203
141	0x3da4fe6e	0.08056341
142	0x3cbe205a	0.023208786
143	0x3c22dbdf	0.009940117
144	0x3d55dad7	0.052210655
145	0x3dabc017	0.083862476
146	0xbd803571	-0.06260193
147	0x3dbe6668	0.09296876
148	0xbdbdb9e3	-0.09263971
149	0x3d465037	0.048416343
150	0x3dc128da	0.0943162
151	0x3dad31d7	0.08456772
152	0xbd4f66bf	-0.050635096
153	0xbd1a2a43	-0.03763796
154	0xbc2e3788	-0.010633357
155	0x3d5f1fb1	0.054473583
156	0xbdedaa59	-0.11604757
157	0x3e086658	0.13320291
158	0x3a776769	0.00094377116
159	0xbd20c888	-0.03925374
160	0x3dc4cc9b	0.09609338
161	0xbca071c3	-0.019585496
162	0x3df68c67	0.12038498
163	0x3cc876b2	0.02447066
164	0x3f063d6b	0.52437466
165	0x3e332150	0.17493176
166	0xbc914330	-0.017732233
167	0xbd05b2dc	-0.032641277
168	0xbd66d9a9	-0.05635992
169	0xbb42510c	-0.0029650358
170	0x3c83b1aa	0.016075928
171	0x3ca02094	0.019546784
172	0x3d62243d	0.05521034
173	0x3d649133	0.055802535
174	0x3dd173c3	0.10227158
175	0x3ca50174	0.020142294
176	0x3d50ba5b	0.050958972
177	0xbccf9375	-0.025338868
178	0x3db1a9f5	0.08674995
179	0x3e51f18f	0.20502304
180	0x3cce3f90	0.025176793
181	0xbd292909	-0.0412989
182	0x3d812804	0.063064605
183	0xbe204aeb	-0.15653579
184	0x3d8b488d	0.06800947
185	0xbc299672	-0.01035081
186	0x3dcf517f	0.10122966
187	0x3ce0a829	0.027423935
188	0xbc1de402	-0.009636881
189	0x3c99142f	0.018686382
190	0x3c9114df	0.017710147
191	0x3dfbc91b	0.12294217
192	0x3e5a3823	0.21310477
193	0xbd231b8b	-0.03982119
194	0x3d24ca23	0.040231835
195	0xbe078108	-0.13232815
196	0xbcf916fd	-0.03040647
197	0xbcc1ed5a	-0.023672748
198	0x3d78834f	0.0606721
199	0x3dd81585	0.105509795
200	0x3e2f68be	0.171298
201	0x3d793fed	0.06085198
202	0xbd07288a	-0.032997645
203	0x3d7645d1	0.060125176
204	0x3cfdfb62	0.031003658
205	0x3d030788	0.031989604
206	0xbe058cc4	-0.13041979
207	0xbd33bc94	-0.043881014
208	0xbd7f8e12	-0.06239135
209	0x3b63a33c	0.0034734746
210	0xbadaa4dc	-0.0016681212
211	0x3cfa8952	0.030583058
212	0xbcd8b656	-0.026454132
213	0xbd4c5611	-0.049886767
214	0x3b9a76fa	0.00471389
215	0x3c72a15a	0.014808977
216	0xbda7862f	-0.0817989
217	0xbc73252f	-0.014840408
218	0xbc623fa1	-0.013809116
219	0x3d4e5593	0.05037458
220	0x3c984be4	0.018590875
221	0xbcd45317	-0.025918527
222	0x3dcb8ceb	0.09938987
223	0x3c13dc12	0.009024637
224	0xbda284cd	-0.07935486
225	0xbd1181e6	-0.03552427
226	0xbd6c2968	-0.057656676
227	0x3d1de5f3	0.038549375
228	0x3dcddc56	0.10051791
229	0x3c74a574	0.014932025
230	0xbcb8f532	-0.022577856
231	0x3cca71ce	0.02471247
232	0x3c7bb016	0.015361806
233	0xbd7dca4c	-0.061960503
234	0x3c034b6c	0.008013587
235	0xbd383433	-0.044971656
236	0xbcc9c524	-0.024630137
237	0xbd77ba77	-0.06048056
238	0x3d3c25cc	0.045934483
239	0xbc338017	-0.010955832
240	0x3d3b2cd0	0.045697033
241	0x3d6bcdd0	0.057569325
242	0x3d3b2cab	0.045696896
243	0x3c7dedc4	0.015498582
244	0xbcc64735	-0.024203876
245	0xbdd85593	-0.10563197
246	0x3d937709	0.072004385
247	0x3d60c44c	0.054874703
248	0x3d9b9f2c	0.07598719
249	0xbcc271a1	-0.023735823
250	0x3d5c8bca	0.05384425
251	0x3c3b2269	0.011421778
252	0x3a1c1288	0.0005953689
253	0x3c5b1d9a	0.013373757
254	0xbcebb53f	-0.028772948
255	0xbc48770e	-0.012235416

fc1.bias f4 [400]
0	0x3e88e858	0.26739764
1	0x3e13522f	0.1438682
2	0x3d90eb35	0.07076112
3	0x3e45b0ad	0.19305678
4	0x3e36868a	0.1782476
5	0xbbc22d2f	-0.0059257965
6	0x3e502a25	0.20328577
7	0x3d69b348	0.05705574
8	0x3e574a6c	0.21024483
9	0xbce212d6	-0.027596872
10	0x3dd8920f	0.105747335
11	0x3da09568	0.07840997
12	0xbdafff50	-0.08593619
13	0xbe721cbb	-0.23643772
14	0x3e55f49a	0.2089409
15	0x3bc6a1c4	0.0060617644
16	0xbd963428	-0.07334167
17	0xbdd21048	-0.10257012
18	0xbd24779f	-0.040153142
19	0x3e11e5ee	0.14247867
20	0xbe3e327d	-0.18573947
21	0x3e393a6e	0.18088695
22	0x3e4b7ada	0.19871083
23	0x3da6de35	0.081478514
24	0xbdea75d3	-0.114482544
25	0xbc95aff0	-0.01827237
26	0xbcfc7d1a	-0.030821372
27	0x3d15bdf8	0.03655812
28	0xbd8914d8	-0.06693429
29	0xbe826d05	-0.254738
30	0xbe1e7228	-0.15473235
31	0x3da86653	0.08222642
32	0x3dd37f99	0.10327072
33	0x3c393faa	0.011306683
34	0x3e37d011	0.17950465
35	0xbdddeabb	-0.10835787
36	0x3d5f5d1d	0.05453216
37	0xbe5e0ec6	-0.21685323
38	0x3e42097a	0.18948928
39	0xbd30d23a	-0.043169238
40	0x3ca2bc7f	0.019865273
41	0xbdc8b2bb	-0.09799715
42	0x3e30f5a6	0.17281207
43	0x3cb7cebf	0.022437451
44	0x3d7d5080	0.06184435
45	0xbe11e06c	-0.14245766
46	0x3cf08a55	0.029362837
47	0x3d85bff9	0.065307565
48	0x3e56375d	0.20919557
49	0xbe316718	-0.17324483
50	0xbe211b22	-0.15733007
51	0xbbcccc9b	-0.006249977
52	0x3e1063ed	0.14100619
53	0xbe31b5c7	-0.17354499
54	0xbe13912a	-0.14410844
55	0x3e047623	0.1293569
56	0x3d71dbdd	0.05904757
57	0x3e2246dc	0.15847343
58	0x3de93898	0.113877475
59	0x3d958ecf	0.07302629
60	0xbd1efebe	-0.03881716
61	0x3d3c0623	0.04590429
62	0x3c579a15	0.013159295
63	0x3db0af0b	0.08627137
64	0xbe6c39bc	-0.23068899
65	0x3e28b680	0.16475868
66	0xbdd4ef50	-0.10397208
67	0xbdfb5e85	-0.122738875
68	0x3d26ebec	0.040752336
69	0x3e78b35e	0.24287173
70	0xbe2e129d	-0.16999288
71	0xbd196d92	-0.03745801
72	0x3e253d30	0.16136622
73	0x3c39dbba	0.011343891
74	0x3d8edb08	0.06975371
75	0xbe3f6c00	-0.18693542
76	0xbd60169a	-0.054709055
77	0xbe462379	-0.19349469
78	0xbd8ae9dc	-0.067828864
79	0xbdd93465	-0.106056966
80	0xbe0a1216	-0.13483462
81	0x3e21b9e8	0.15793574
82	0xbe00d49e	-0.12581107
83	0x3d9a02cd	0.075200655
84	0xbe04bd7c	-0.12962908
85	0xbe983c19	-0.2973335
86	0x3e43733c	0.19086927
87	0x3d302a53	0.043009114
88	0xbb964d34	-0.00458684
89	0xbe8643d2	-0.26223618
90	0x3e144faf	0.14483522
91	0x3c2a5017	0.0103950715
92	0x3e4f32b0	0.2023418
93	0xbe1c37bc	-0.15255636
94	0xbe02edb0	-0.12785983
95	0x3d81a97b	0.06331154
96	0x3e96c94d	0.29450455
97	0xbe96dd05	-0.294655
98	0x3e0a32b3	0.13495903
99	0xbe6eb578	-0.23311412
100	0xbe6b19e9	-0.22959103
101	0x3d13c4a8	0.036076218
102	0x3db60acb	0.08888777
103	0x3e03aba4	0.12858444
104	0x3d2c7cf6	0.04211136
105	0xbd1f0c17	-0.03882989
106	0x3e4cc071	0.19995286
107	0x3da29a5d	0.07939599
108	0xbe380b97	-0.17973171
109	0xbe390277	-0.18067347
110	0x3c214d55	0.009845098
111	0x3e15673d	0.14590164
112	0x3e750c21	0.23930408
113	0xbe66dd63	-0.2254539
114	0xbd400200	-0.046876907
115	0xbd7a151f	-0.0610553
116	0xbe0918f8	-0.13388431
117	0x3e22148c	0.1582815
118	0x3dd6983a	0.10478254
119	0x3da54234	0.08069268
120	0x3d1cf35e	0.03831803
121	0xbe4c145d	-0.19929643
122	0x3e71675c	0.23574585
123	0x3e2dd56f	0.1697595
124	0xbe6a8a12	-0.22904232
125	0x3de3157b	0.110880814
126	0x3e5d491e	0.21609923
127	0x3e7d9ec6	0.24767599
128	0xbe4ef2e4	-0.20209843
129	0x3e0c67a1	0.13711406
130	0x3df32182	0.118716255
131	0x3dc36c8f	0.0954219
132	0x3e3a2ca4	0.18181092
133	0xbe1b9605	-0.15193947
134	0xbcea290f	-0.028584031
135	0x3dc6e056	0.097107574
136	0xbe673d05	-0.22581871
137	0xbe2ee322	-0.17078832
138	0xbe4a23ba	-0.19740191
139	0xbe3d2803	-0.18472295
140	0xbe01b017	-0.12664829
141	0x3dd464fb	0.10370823
142	0xbe74c05f	-0.23901509
143	0x3d28471f	0.04108345
144	0x3c7fb9cd	0.015608263
145	0xbe30b100	-0.1725502
146	0x3e0f19c6	0.13974676
147	0x3e206bd7	0.15666138
148	0xbe61a057	-0.22033821
149	0x3df13abe	0.11778782
150	0xbe1435f5	-0.14473708
151	0x3d67d7f9	0.056602452
152	0xbd938934	-0.07203904
153	0x3d710f89	0.058852706
154	0xbe036f9f	-0.12835549
155	0x3e024c82	0.12724498
156	0xbdd4890d	-0.10377703
157	0xbe40d5da	-0.18831578
158	0xbdd99f73	-0.10626116
159	0x3e032851	0.12808348
160	0x3de35b95	0.11101452
161	0xbe25da11	-0.16196467
162	0xbd62e1a3	-0.055390965
163	0xbcc5c572	-0.024142
164	0x3e11f77d	0.14254566
165	0xbe2e8734	-0.17043763
166	0xbe33031c	-0.17481655
167	0xbe2b5a13	-0.1673358
168	0xbddfca82	-0.10927297
169	0x3e3737a7	0.17892323
170	0x3e05ef08	0.13079464
171	0x3e7231f4	0.23651868
172	0xba4623f9	-0.0007558461
173	0xbe58e5c7	-0.21181403
174	0x3ce1df3a	0.027572263
175	0xbcea6671	-0.028613301
176	0xbe862293	-0.26198253
177	0xbe055552	-0.13020828
178	0x3e0f649c	0.14003223
179	0xbc22dd70	-0.00994049
180	0xbd7805e7	-0.060552504
181	0xbe23874d	-0.15969582
182	0x3da3a7bc	0.07990977
183	0x3d3c5457	0.04597887
184	0xbdc7aba0	-0.09749532
185	0xbe56e91c	-0.20987362
186	0x3d8e4c6d	0.06948171
187	0xbcfdd34e	-0.030984547
188	0xbd326113	-0.04354961
189	0xbd833b81	-0.06407834
190	0x3d0e3b3d	0.034724463
191	0xbdf1feff	-0.11816215
192	0x3cdab0e2	0.026695672
193	0xbdd01904	-0.10161021
194	0xbd441e3b	-0.047880393
195	0xbd8cd3c1	-0.06876326
196	0xbd4a60d9	-0.049408767
197	0xbe326ef8	-0.17425144
198	0x3d511116	0.051041685
199	0xbb509cbf	-0.003183171
200	0x3cb090b7	0.02155338
201	0x3db43135	0.08798448
202	0x3e02e810	0.12783837
203	0x3d8c926d	0.06863866
204	0x3c8be317	0.017076058
205	0x3d4a6e40	0.04942155
206	0xbdcb46f5	-0.09925643
207	0xbda68ddd	-0.08132527
208	0x3e07c916	0.13260302
209	0xbe16787e	-0.14694402
210	0xbd174182	-0.036927707
211	0xbe152f1b	-0.1456875
212	0xbd898a56	-0.067158386
213	0xbbfa2d07	-0.007634762
214	0xbd6c69c9	-0.057718072
215	0x3c704cea	0.014666775
216	0x3e1a9bc2	0.1509848
217	0x3d3755e4	0.044759646
218	0xbe238e54	-0.15972263
219	0x3e280ed3	0.16411905
220	0x3d145605	0.036214847
221	0xbe5cfebd	-0.2158155
222	0x3dbe498f	0.09291374
223	0xbe49a678	-0.19692409
224	0x3d6fb5f4	0.058523133
225	0x3da879ad	0.08226333
226	0x3e5756ae	0.2102916
227	0xbdcef19b	-0.10104676
228	0xbdbf72a3	-0.09348037
229	0xbe2c6575	-0.16835578
230	0xbe36fb6c	-0.17869347
231	0xbd51aae7	-0.051188376
232	0xbe07e03d	-0.13269134
233	0x3d0a420c	0.033754393
234	0x3e2a616c	0.16638726
235	0x3dd6abc0	0.104819775
236	0x3e2e51d4	0.17023402
237	0xbdd89948	-0.10576111
238	0x3c25c918	0.010118745
239	0xbe51c0a3	-0.20483641
240	0x3e68825d	0.2270598
241	0xbd5dba65	-0.054132838
242	0x3d8793cb	0.06619986
243	0xbe506548	-0.20351136
244	0x3e22addb	0.15886633
245	0xbdebde91	-0.115170605
246	0x3e263158	0.1622976
247	0xbdb195c6	-0.08671145
248	0xbc286076	-0.010276904
249	0x3d0d51fe	0.034502022
250	0x3d2cf06b	0.042221468
251	0xbd3987ea	-0.045295633
252	0x3e141ed7	0.1446489
253	0xbd270160	-0.040772796
254	0xbd2c83a8	-0.042117745
255	0x3e39d910	0.18149209

fc2.weight f4 [300, 400]
0	0x3cde0d27	0.02710588
1	0x3e177863	0.14792018
2	0x3dc04035	0.093872465
3	0xbcbd6023	-0.02311713
4	0x3e1b81f7	0.15186296
5	0x3c0631cc	0.008190583
6	0xbc2f8399	-0.010712528
7	0x3d1ebbc1	0.038753275
8	0x3dfeee7e	0.124478325
9	0xbdceb7f9	-0.10093684
10	0xbca8c883	-0.020603424
11	0x393f57c8	0.0001824788
12	0x35f10a80	1.7958955e-06
13	0x3c4c3b31	0.012465284
14	0x3d72f6a9	0.059317265
15	0x3dec7220	0.11545205
16	0xbe2541de	-0.16138408
17	0x3bcdaca2	0.006276683
18	0xbe3bcb17	-0.18339191
19	0x3c8ea170	0.017410964
20	0x3d72cbbd	0.05927633
21	0xbd2c5510	-0.04207331
22	0x3d36e42d	0.0446512
23	0xbca31173	-0.019905781
24	0x3d3c9cb9	0.0460479
25	0x3bc18238	0.005905416
26	0x3ced6e31	0.028983207
27	0x3d775b2c	0.060389683
28	0x3d1da394	0.03848608
29	0xbe3bcf33	-0.18340759
30	0x3ce70441	0.02820027
31	0xbd88d92a	-0.06682046
32	0x3cdcfcd0	0.02697602
33	0x3d7b9627	0.061422493
34	0x3b93a9cb	0.004506325
35	0x3dca6858	0.09883183
36	0x3c8fba5d	0.01754492
37	0xbd157021	-0.036483888
38	0xbd17cd38	-0.037060946
39	0x3c49a682	0.012307765
40	0x3d7539a1	0.059869412
41	0x3cd4accf	0.025961308
42	0x3c0d9ff7	0.008644096
43	0x3e4c998e	0.19980451
44	0x3ddada00	0.106861115
45	0xbc5db68a	-0.01353229
46	0x3db9d4f9	0.090738244
47	0xbd9960db	-0.07489177
48	0x3d6b77ac	0.057487175
49	0x3d4f3551	0.050587956
50	0xbd80a560	-0.06281543
51	0xbd2d39b3	-0.042291354
52	0x3e15a879	0.14615048
53	0xbc90ce4e	-0.017676499
54	0xbd78f5a7	-0.060781147
55	0x3d6302a4	0.05542244
56	0xbe0841fd	-0.13306423
57	0x3d5ad122	0.0534221
58	0xbd7c30ac	-0.061569855
59	0x3d2282c3	0.039675485
60	0xbe200f0c	-0.1563074
61	0x3d3cb2e7	0.046069052
62	0xbcc7e341	-0.024400355
63	0x3cffdf27	0.031234337
64	0xbe1863b9	-0.14881791
65	0x3cfb5578	0.030680403
66	0x3dbabf6d	0.09118543
67	0xbd91bbb0	-0.07115877
68	0x3dc04de4	0.093898565
69	0x3daa39b4	0.08311787
70	0x3d9d2dcd	0.076747514
71	0x3dc738b8	0.09727615
72	0x3d6b080b	0.057380717
73	0xbca854b2	-0.020548198
74	0x3d8af9d5	0.06785933
75	0x3d544469	0.051823054
76	0x3d164080	0.036682606
77	0xbe2eb013	-0.17059354
78	0x3d27eb0a	0.040995635
79	0xbc2cd253	-0.010548192
80	0x3d6c754c	0.05772905
81	0x3d9e3055	0.07724062
82	0x3dc4ceb6	0.096097395
83	0x3deacd4b	0.11464938
84	0xbd2a04b9	-0.04150841
85	0xbe12d0ca	-0.14337459
86	0xbcd16a43	-0.025563365
87	0xbc3711b6	-0.011173656
88	0x3cd3d9a0	0.025860608
89	0xbd0fb6ee	-0.035086565
90	0x3dea203c	0.114319295
91	0xbe22bc30	-0.158921
92	0xbce7be1d	-0.028288895
93	0xbdbb0fa5	-0.09133843
94	0xbdae73cb	-0.085181795
95	0x3d838777	0.06422322
96	0x3dcaabbc	0.09896037
97	0xbb2e5571	-0.002660122
98	0x3ce237f1	0.027614566
99	0x39f63822	0.000469626
100	0xbd64bf69	-0.055846605
101	0x3c25901a	0.010105157
102	0x3b9d68c1	0.0048037474
103	0xbe15d3de	-0.14631602
104	0xbdc5958d	-0.09647665
105	0x3dbe3720	0.09287858
106	0xbb68bfdf	-0.0035514755
107	0xbd4aad19	-0.049481485
108	0xbc8d0dec	-0.017218553
109	0x38c7bc28	9.524106e-05
110	0xbe17d8f9	-0.14828862
111	0x3e233ac4	0.15940386
112	0x3d88fc73	0.06688776
113	0xbd089dad	-0.033353496
114	0xbe2e553d	-0.17024703
115	0x3b9bc327	0.0047534886
116	0xbcd690a0	-0.02619201
117	0x3d90178e	0.07035743
118	0x3cb9da96	0.022687238
119	0x3cc0e055	0.02354447
120	0xbe55a9b8	-0.20865524
121	0x3ca7ff05	0.020507345
122	0x3cdc0510	0.026857883
123	0xbd172373	-0.03689904
124	0x3cb995f9	0.02265452
125	0x3d8c6bc4	0.06856492
126	0x3de586c4	0.11207345
127	0x3de0b54f	0.10972082
128	0xbcf1da54	-0.029523052
129	0x3e13b1ad	0.14423247
130	0xbcc06a08	-0.02348806
131	0x3d6d8b9c	0.05799447
132	0x3e37b311	0.17939402
133	0xbdfe2c29	-0.12410767
134	0xbbdf61e0	-0.0068170875
135	0xbd339e31	-0.043852035
136	0xbd18d50c	-0.037312552
137	0xbdfb014f	-0.12256109
138	0xbd2e506f	-0.042557176
139	0xbd0bf82d	-0.034172226
140	0xbd2f0cfa	-0.042736985
141	0x3dd38d6e	0.1032971
142	0x3cbf6085	0.023361454
143	0xbdf35d6a	-0.11883052
144	0xbcacb7aa	-0.021083672
145	0x3bf4effd	0.007474898
146	0xbcac8ace	-0.021062281
147	0x3b525308	0.0032092948
148	0x3d44034d	0.04785471
149	0x3ce81128	0.028328493
150	0xbd86d1d6	-0.06582992
151	0x3d297baa	0.0413777
152	0xbce78b03	-0.028264528
153	0x3b18180b	0.002320769
154	0x3bb86c90	0.005628176
155	0xbd0e5b07	-0.03475478
156	0x3c854fdb	0.01627343
157	0x3c0e9738	0.008703046
158	0xbd754fef	-0.059890684
159	0x3d8a9fae	0.06768738
160	0xbd5de7ac	-0.054176018
161	0xbde665db	-0.11249896
162	0x3df6bc7b	0.120476685
163	0x3c47dce6	0.012198662
164	0xbd13b0dd	-0.03605734
165	0x3d3493d7	0.044086304
166	0x3d001fb1	0.031280223
167	0xbe106d98	-0.14104307
168	0x3d915eb7	0.070981435
169	0x3d72eb15	0.059306223
170	0xbd53efd3	-0.051742386
171	0x3cfb9bc4	0.030713923
172	0x3adabbb7	0.0016688023
173	0xbd80ee2c	-0.06295428
174	0x3db99d0f	0.0906316
175	0x3e1d521f	0.15363358
176	0xbd9c1b66	-0.07622413
177	0xbd92a802	-0.07160951
178	0x3cd21eaf	0.025649397
179	0x3d1fe0eb	0.039032858
180	0xbc9165ae	-0.01774868
181	0xbd10f869	-0.035393152
182	0x3d00ce64	0.03144683
183	0xbe1b8008	-0.15185559
184	0xbd34fad6	-0.04418453
185	0x3b61f022	0.0034475406
186	0xbd48c778	-0.049018353
187	0x3d425638	0.047445506
188	0x3da86942	0.08223201
189	0xbd69f29c	-0.057116136
190	0xbdbd7338	-0.09250492
191	0xbdc55631	-0.0963558
192	0x3c3ee0ea	0.011650303
193	0xbda176e2	-0.07884003
194	0x3d066cc5	0.032818574
195	0xbcf85249	-0.030312674
196	0x3e1c95a2	0.15291455
197	0x3cc8a735	0.024493793
198	0xbcc6aeb8	-0.024253234
199	0xbcce8f4b	-0.025214812
200	0x3d40515d	0.046952594
201	0xbd061346	-0.032733224
202	0x3bf52224	0.0074808765
203	0x3d095d37	0.033536162
204	0x3e309ffb	0.17248528
205	0xbcb3f5e6	-0.02196784
206	0xbd22b93f	-0.039727446
207	0xbcde2839	-0.027118789
208	0x3dd06705	0.101758994
209	0xbdf11fb3	-0.11773624
210	0x3b4e7940	0.0031505376
211	0xbd8ad390	-0.067786336
212	0xbcc7f159	-0.024407076
213	0xbe0be188	-0.13660252
214	0x3d727aba	0.059199072
215	0xbda329ca	-0.07966955
216	0xbd6db2e7	-0.058031943
217	0xbd1099d2	-0.035302944
218	0xbc739655	-0.014867385
219	0xbe342d1d	-0.17595334
220	0xbd42f84b	-0.047600072
221	0xbca00040	-0.01953137
222	0x3d928fbb	0.07156321
223	0x3d2714ff	0.040791508
224	0xbda687a4	-0.0813134
225	0xbcc08a69	-0.0235035
226	0xbda2c65f	-0.079479925
227	0xbad350c1	-0.0016122089
228	0x3d91ac16	0.07112901
229	0xbd83530c	-0.06412324
230	0xbe0809ca	-0.13284984
231	0x3d72cddf	0.059278365
232	0x3d319528	0.043355137
233	0x3cd2a213	0.025712049
234	0x3cef891e	0.029240187
235	0xbdd3febd	-0.10351322
236	0x3d9d388b	0.076768
237	0xbd0ce761	-0.034400348
238	0x3d92cfd3	0.071685456
239	0xbd19fb91	-0.037593428
240	0xbb9faf4c	-0.004873192
241	0xbd2bff56	-0.041991554
242	0x3d4e225d	0.05032574
243	0xbda3a6d6	-0.07990806
244	0xbcf343c0	-0.029695392
245	0x3d19d0d1	0.03755266
246	0xbc0cd79e	-0.008596329
247	0xbc1eb162	-0.009685846
248	0x3d73c8c5	0.05951764
249	0x3e2463ee	0.16053745
250	0x3d8905ef	0.06690585
251	0xbbe44ded	-0.0069672973
252	0xbd3e5516	-0.046467863
253	0x3dbae457	0.091255836
254	0xbc1583bb	-0.009125645
255	0x3de3e38f	0.11127388

fc2.bias f4 [300]
0	0x3d2db189	0.04240564
1	0xbc01639d	-0.007897285
2	0xbd84ddb7	-0.06487601
3	0x3d4d6681	0.050146583
4	0x3c295176	0.010334363
5	0x3ca70612	0.020388637
6	0xbbefbc1a	-0.0073161246
7	0x3cf149e5	0.029454181
8	0x3d968991	0.073504575
9	0x3da5e063	0.08099439
10	0x3dc11470	0.09427726
11	0xbd2ae841	-0.0417254
12	0xbdc175c9	-0.09446294
13	0x3da88e42	0.082302585
14	0x3dca740f	0.09885418
15	0x3d1d71fc	0.038438782
16	0x3d7402a9	0.05957285
17	0xbce0e247	-0.027451647
18	0x3deb12e6	0.11478214
19	0x3d3e3f11	0.046446864
20	0xbce6ebc1	-0.028188588
21	0x3b074778	0.0020641964
22	0x3d7d897a	0.061898686
23	0x3c2e73c3	0.010647717
24	0xbc739937	-0.014868072
25	0x3deca77d	0.11555383
26	0xbd550c9d	-0.052013982
27	0xbdd07786	-0.10179047
28	0xbafe8051	-0.0019416903
29	0x3da99046	0.08279471
30	0xbd57566f	-0.052572664
31	0x3d5b2775	0.053504426
32	0x3d3874c9	0.04503325
33	0xbcd717e0	-0.026256502
34	0x3d8cfbb4	0.06883946
35	0xbdb29622	-0.08720042
36	0x3db49c14	0.08818832
37	0xbd19830a	-0.037478484
38	0x3c1d2afc	0.009592768
39	0x3c9a53b2	0.018838737
40	0x3dace7ca	0.08442648
41	0x3d67b435	0.056568343
42	0x3d82f239	0.063938566
43	0x3beead0f	0.007283814
44	0x3da6599f	0.081225626
45	0x3da25a34	0.07927361
46	0x3d8f4e78	0.069973886
47	0xbe022f5b	-0.12713377
48	0x3d4d838f	0.050174292
49	0x3d887536	0.06662981
50	0xbc6ece96	-0.014575621
51	0xbdb4a963	-0.088213705
52	0xbdc234fd	-0.09482763
53	0x3bc4aa10	0.0060017183
54	0x3ded6ad8	0.115926445
55	0xbda46fc4	-0.0802913
56	0xbd484f2f	-0.04890364
57	0xbdabd239	-0.08389706
58	0x3d83dbb0	0.064383864
59	0xbda7f8ed	-0.08201776
60	0x3d3b7bea	0.04577247
61	0xbc387695	-0.011258741
62	0xbcf2b88a	-0.02962901
63	0xbd29b032	-0.0414278
64	0x3defbac1	0.11705542
65	0x3dba0ec5	0.09084848
66	0x3d89d509	0.06730086
67	0x3e12b095	0.14325173
68	0xbdddcd4e	-0.108301744
69	0x3db68f42	0.08914043
70	0x3d50e3b1	0.050998393
71	0xbdbf96a9	-0.09354908
72	0xbd3ea503	-0.046544086
73	0x3de857da	0.11344881
74	0x3bd28220	0.0064242035
75	0xbcf89cac	-0.030348144
76	0xbc992c05	-0.018697748
77	0x3cb5ea9e	0.0222066
78	0x3c978cc3	0.018499738
79	0xbdf031af	-0.117282264
80	0xbd02a166	-0.031892203
81	0x3ccc9453	0.02497307
82	0xbd20121d	-0.039079774
83	0xbce2193a	-0.02759992
84	0x387dacb6	6.048075e-05
85	0xbdaf3d12	-0.0855657
86	0xbd24b417	-0.04021081
87	0x3ce51c1e	0.027967509
88	0xbdd0dda3	-0.10198524
89	0xbde82ceb	-0.113366924
90	0x3b10e542	0.0022109305
91	0xbb5f03bb	-0.0034029323
92	0x3d893930	0.06700361
93	0x3d2b94c9	0.04188994
94	0xbd530a5d	-0.051523555
95	0x3c5a7d93	0.013335603
96	0xbdb5c1a4	-0.08874825
97	0xbd097532	-0.03355903
98	0x3d8c9c65	0.068657674
99	0x3d58ad08	0.05289939
100	0xbc1f8d36	-0.009738257
101	0x3da878c7	0.082261615
102	0xbd8032e1	-0.062597044
103	0x3ca913be	0.020639297
104	0x3dd1912c	0.102327675
105	0x3d930338	0.07178348
106	0xbdc88240	-0.09790468
107	0x3c42c958	0.011888824
108	0xbd87c008	-0.06628424
109	0x3d967ede	0.07348417
110	0x3d8aa6e8	0.06770116
111	0xbd5bf1c0	-0.053697348
112	0x3c67652b	0.014123241
113	0xbd17e478	-0.03708312
114	0x3a94a756	0.0011341374
115	0xbdb19ef5	-0.08672897
116	0x3d55d82a	0.052208103
117	0xbd154b35	-0.036448676
118	0x3bbb93ff	0.0057244296
119	0x3dbfcb43	0.09364941
120	0xbd855743	-0.065107845
121	0x3e098892	0.13431004
122	0x3cb37eb3	0.021911
123	0x3d49cf1d	0.049269784
124	0xbce2ac8a	-0.027670164
125	0xbd4502c5	-0.048098344
126	0xbce528f2	-0.027973626
127	0xbdf6db87	-0.1205359
128	0xbda98291	-0.08276857
129	0xbc02ced5	-0.007983883
130	0xbc275de7	-0.010215259
131	0x3de63125	0.11239842
132	0x3d223205	0.039598484
133	0xbd68cc61	-0.056835536
134	0xbdd01a05	-0.10161213
135	0xbbdaa717	-0.0066727507
136	0x3ce17930	0.027523607
137	0xbe0ecd3c	-0.13945478
138	0x3d2fe8d6	0.04294666
139	0xbc000a30	-0.007814929
140	0x3e0265d2	0.12734154
141	0xbdd7d723	-0.10539081
142	0x3d98af32	0.07455291
143	0x3d9e055a	0.077158645
144	0xbc200396	-0.00976648
145	0xbd43c62c	-0.047796413
146	0x3ce76027	0.028244091
147	0xbd871920	-0.06596589
148	0x3d2a1caf	0.04153126
149	0xbcce9c8b	-0.02522113
150	0xbdf7d6da	-0.121015266
151	0xbdb6c2ec	-0.08923897
152	0x3d9574ac	0.07297644
153	0x3cee066d	0.029055798
154	0xbcd8047a	-0.026369322
155	0xbd8722fe	-0.06598471
156	0xbd6e58c0	-0.058190107
157	0x3d8c27de	0.068435416
158	0xbda7ca45	-0.08192877
159	0xbd4bac05	-0.049724597
160	0x3c9bcf1e	0.01901966
161	0xbcfe089a	-0.03100996
162	0x3db74d55	0.08950297
163	0x3e068857	0.13137947
164	0x3d531808	0.05153659
165	0x3cc5f8f0	0.024166554
166	0xbc827758	-0.015926048
167	0xbd83876e	-0.064223155
168	0xbc19dcd0	-0.009391025
169	0xbb3b148b	-0.002854618
170	0xbd22c0fe	-0.039734833
171	0xbe115479	-0.1419238
172	0x3ddf2d27	0.10897284
173	0xbd6defa7	-0.05808988
174	0xbd0d2f47	-0.034468915
175	0xbc51f28b	-0.012814174
176	0x3c82fb68	0.01598902
177	0xbabfcf92	-0.0014634004
178	0xbd53d98f	-0.051721152
179	0x3d0a0a28	0.033701092
180	0x3d63d068	0.055618674
181	0x3db0b705	0.08628658
182	0xbd11fea5	-0.03564324
183	0x3d3c81e5	0.046022315
184	0x3d02eeb0	0.03196591
185	0xbdbdf8e7	-0.0927599
186	0xbdba66cf	-0.091016404
187	0xbd9ca347	-0.0764833
188	0x3dcf273b	0.101149045
189	0xbc9fc034	-0.01950083
190	0x3d262db2	0.040570922
191	0x3dbfcafb	0.09364887
192	0x3d99b6ce	0.0750557
193	0x3c826f9d	0.015922362
194	0x3be8ff80	0.007110536
195	0xbc2a954c	-0.010411572
196	0x3dfc7c40	0.12328386
197	0x3c78a9f3	0.015177238
198	0x3c9bfbd9	0.019040989
199	0xbd3b3a8a	-0.045710124
200	0xbd7bcdda	-0.061475612
201	0xbdf44fc9	-0.1192928
202	0x3be0a86f	0.0068560163
203	0x3cda28e9	0.026630836
204	0xbdc29b69	-0.095022984
205	0x3d98eb56	0.07466762
206	0x3d9578d2	0.07298435
207	0x3cf08e6b	0.029364785
208	0x3d9cb87e	0.076523766
209	0x3da76fff	0.081756584
210	0xbd24ae96	-0.04020556
211	0x3d603c6d	0.054745127
212	0x3d34568c	0.04402785
213	0xbd21d663	-0.039511096
214	0xbd24e976	-0.04026171
215	0xbd0413ba	-0.032245375
216	0x3dbab5a3	0.09116676
217	0x3d6b9dda	0.057523586
218	0x3ccd6745	0.025073657
219	0x3da66419	0.08124561
220	0xbdc39a6c	-0.09550938
221	0x3cab9543	0.020945197
222	0x3da6dc44	0.08147481
223	0xbdb7437d	-0.08948419
224	0x3ccff373	0.02538464
225	0x3da466b2	0.080274
226	0x3c22c564	0.009934757
227	0xbd5d6e3e	-0.054060213
228	0x3dcb892a	0.09938271
229	0xbc8cf0a2	-0.017204586
230	0xbcab3bc9	-0.020902531
231	0x3d48aa28	0.0489904
232	0xbd1abe5b	-0.037779193
233	0xbdee02f9	-0.11621661
234	0x3d17477a	0.0369334
235	0x3d179ad5	0.037012894
236	0xbe1b0cdb	-0.15141623
237	0x3ddd0e8e	0.10793792
238	0xbd91abb8	-0.07112831
239	0xbcd60042	-0.02612317
240	0x3c4eb043	0.012615266
241	0xbdca8275	-0.09888164
242	0xbd42a959	-0.047524784
243	0x3da1e079	0.07904143
244	0xbc508441	-0.012726844
245	0xbdc6406c	-0.09680256
246	0x3cae05e7	0.021243049
247	0xbde4c5af	-0.11170518
248	0x3d576d67	0.05259457
249	0x3dd923b0	0.1060251
250	0x3b0259a9	0.0019889867
251	0x3d46fc94	0.04858072
252	0xbd06c775	-0.03290506
253	0xbbc5eb7e	-0.0060400357
254	0xbd06a149	-0.032868657
255	0x3dc78e1a	0.097439006

fc3.weight f4 [4, 300]
0	0x3ddd6c78	0.108117044
1	0xbe4335ec	-0.19063538
2	0x3c92b560	0.017908752
3	0x3e974bae	0.29549927
4	0x3e0ff246	0.14057264
5	0x3d1fecc1	0.039044145
6	0xbd9d78b0	-0.07689035
7	0x3e10c21d	0.14136548
8	0xbea0517e	-0.31312174
9	0x3e055423	0.13020377
10	0xbe1e2429	-0.15443482
11	0xbea5f830	-0.32415915
12	0x3e89956a	0.26871806
13	0x3e0b719f	0.13617562
14	0xbc47d374	-0.01219641
15	0x3b9a66f7	0.0047119814
16	0x3e259c96	0.16173014
17	0xbb0d4cf4	-0.002156076
18	0x3da078f6	0.078355715
19	0x3d839882	0.06425573
20	0x3eccfb20	0.40035343
21	0x3eb36a13	0.35041866
22	0x3d96c56d	0.07361875
23	0xbc72e6d2	-0.01482554
24	0x3dc663aa	0.09686978
25	0x3ce88fc4	0.028388865
26	0xbca081e9	-0.019593196
27	0xbe963dda	-0.29344064
28	0x3d8aa778	0.067702234
29	0x3e59c016	0.21264681
30	0xbe9a79f1	-0.3017116
31	0xbe41f712	-0.18941906
32	0xbde4bb2c	-0.11168513
33	0xbd5fadb4	-0.054609016
34	0xbdb48055	-0.0881354
35	0x3d51df56	0.05123838
36	0x3e43fd8a	0.19139686
37	0x3e576385	0.21034057
38	0xbce28734	-0.02765236
39	0xbe2a759f	-0.16646431
40	0xbb10b991	-0.0022083262
41	0x3cca3b5b	0.024686506
42	0xbd61d53c	-0.055134997
43	0x3b97673e	0.0046204617
44	0xbd885c14	-0.066581875
45	0xbe8c90d1	-0.27454236
46	0xbd4d2eef	-0.050093587
47	0x3e847d28	0.25876737
48	0x3dc211bc	0.09476039
49	0x3d3bd6e3	0.04585923
50	0xbe841eb1	-0.25804666
51	0xbe72c8ba	-0.23709384
52	0x3e59be05	0.21263893
53	0x3da27c7a	0.07933898
54	0xbb26d9be	-0.0025459374
55	0xbe56f571	-0.20992066
56	0xbd6d8bb4	-0.05799456
57	0xbdcf5430	-0.10123479
58	0x3cd09924	0.025463648
59	0xbc8872cf	-0.016656308
60	0xbdc3aee1	-0.0955484
61	0xbdfe8cfa	-0.12429233
62	0xbe86df3f	-0.26342198
63	0xbea0a5fd	-0.3137664
64	0xbe829a99	-0.25508574
65	0x3d32b3e2	0.04362858
66	0xbdfc00d4	-0.123048455
67	0xbe5a45ba	-0.21315661
68	0x3e6f8406	0.23390207
69	0x3d8a429d	0.06750987
70	0xbe03efd0	-0.1288445
71	0xbeae5774	-0.34051096
72	0xbe9c3e62	-0.30516344
73	0xbd3e1389	-0.04640535
74	0xbe6d713e	-0.2318773
75	0xbd0ee810	-0.03488928
76	0xbe979ae5	-0.29610363
77	0x3d52dd47	0.051480558
78	0x3d382b9a	0.044963457
79	0x3e388d84	0.18022734
80	0xbd3a206c	-0.045441076
81	0xbd212ddf	-0.039350387
82	0x3ec0c220	0.37648106
83	0x3e84cfd9	0.25939825
84	0x3e871b4c	0.26388013
85	0x3d419ec5	0.047270555
86	0xbdea355e	-0.1143596
87	0x3dad0256	0.08447711
88	0xbd5b57e0	-0.0535506
89	0xbe3d38d7	-0.18478714
90	0xbcc97b60	-0.024594963
91	0xbe1f7235	-0.1557091
92	0x3ebf087e	0.37311167
93	0xbe3f66ac	-0.1869151
94	0x3b158cad	0.0022819445
95	0xbe20d940	-0.15707874
96	0x3ea6d4d8	0.32584262
97	0xbd80f835	-0.06297342
98	0x3b98b942	0.0046607563
99	0xbe265cbd	-0.16246314
100	0xbdecba64	-0.11558989
101	0xbdb7ac7d	-0.089684464
102	0xbde34f29	-0.11099083
103	0x3e305b8c	0.17222422
104	0x3e7043bb	0.23463337
105	0x3e23850a	0.15968719
106	0x3e0e626a	0.1390473
107	0xbd83c767	-0.06434517
108	0x3e14286b	0.14468543
109	0x3e1d5a0d	0.15366383
110	0x3d3e55ea	0.046468653
111	0xbd4fc59a	-0.050725557
112	0xbc869609	-0.016428964
113	0x3b6a4498	0.0035746451
114	0x3bedb035	0.0072536715
115	0xbc5e9a29	-0.013586559
116	0x3e6bc7e4	0.23025471
117	0x3dd030c6	0.10165553
118	0x3dd3e37a	0.10346122
119	0x3dd40e0f	0.10354244
120	0xbd0f37f5	-0.034965474
121	0x3e10ed39	0.14152993
122	0x3e42aaa9	0.19010414
123	0x3e7a2651	0.24428679
124	0xbd24a4f0	-0.04019636
125	0x3e19508a	0.1497213
126	0xbcc4e004	-0.0240326
127	0x3e1b04ff	0.15138625
128	0x3d56d961	0.052453402
129	0x3d264ea2	0.040602334
130	0x3e9fdef4	0.31224787
131	0x3e80cafd	0.25154868
132	0xbe6f93c3	-0.2339621
133	0xbdec3346	-0.11533217
134	0xbd92b689	-0.07163722
135	0x3ca4559f	0.020060359
136	0xbba04219	-0.004890692
137	0x3e317a0a	0.1733171
138	0x3d86baec	0.06578621
139	0x3dcab00d	0.0989686
140	0xbe4a4fde	-0.1975703
141	0x3e7d6bf9	0.2474822
142	0x3d361cec	0.044461176
143	0x3db18b0f	0.086691014
144	0xbe029038	-0.12750328
145	0x3d154010	0.036438048
146	0xbe27276c	-0.16323632
147	0x3de37d3e	0.111078724
148	0x3daa5777	0.08317464
149	0x3ea4f295	0.32216325
150	0xbdd9a00e	-0.10626231
151	0x3c7bccd6	0.015368661
152	0x3eb60035	0.35547033
153	0xbe3ee047	-0.18640243
154	0x3c4b4a6a	0.012407878
155	0x3e1f78c2	0.15573409
156	0x3e9ce685	0.30644622
157	0x3e79da1d	0.2439961
158	0xbe8ad17c	-0.2711295
159	0xbebe530d	-0.37172738
160	0x3e6347cc	0.22195357
161	0xbe914b29	-0.28377655
162	0x3e793cf4	0.24339658
163	0x3de4a920	0.111650705
164	0x3d8fc44c	0.070198625
165	0xbd2ee66f	-0.042700227
166	0x3d85c26f	0.06531226
167	0x3e37047d	0.17872806
168	0x3ce1eeda	0.027579714
169	0xbd019409	-0.031635318
170	0xbb0ca6e1	-0.0021461772
171	0xbddaaa80	-0.106770515
172	0x3d8e9ec0	0.06963873
173	0x3de8b91d	0.113634326
174	0xbde1499e	-0.110003695
175	0xbe27f882	-0.16403392
176	0x3ebe899e	0.3721437
177	0x3e189e5a	0.14904156
178	0xbb4d0865	-0.003128552
179	0xbd200977	-0.039071526
180	0xbe8dfe39	-0.2773302
181	0xbe43d397	-0.19123684
182	0x3dda4ef1	0.10659588
183	0xbd157e1b	-0.036497217
184	0xbc1df0ff	-0.0096399775
185	0xbd1b4929	-0.037911568
186	0xbdf6a252	-0.12042679
187	0xbe214fd0	-0.15753102
188	0xbe26b6a7	-0.16280614
189	0x3c49a7a6	0.012308037
190	0xbde4072c	-0.111341804
191	0x3dee508b	0.11636456
192	0x3e0e5fec	0.13903779
193	0xbd4968ed	-0.04917233
194	0xbe2096e8	-0.15682566
195	0x3bd92b3e	0.0066274693
196	0xbe587527	-0.2113844
197	0x3e28a8ec	0.16470689
198	0x3e02c1e4	0.12769276
199	0xbd2565d6	-0.04038032
200	0xbdbb514b	-0.09146365
201	0xbdfa298c	-0.12214956
202	0xbe0a6501	-0.13515092
203	0xbe3e812c	-0.18603963
204	0x3e714692	0.23562077
205	0xbd1d9f2a	-0.03848187
206	0x3e5557a1	0.20834209
207	0x3dade096	0.08490102
208	0xbe821729	-0.25408295
209	0xbe8f0a84	-0.2793771
210	0x3e4e8368	0.20167315
211	0xbe15bd7f	-0.14623068
212	0xbdf7e299	-0.12103767
213	0xbc9b440f	-0.018953351
214	0xbd152f02	-0.036421783
215	0x3ea6422e	0.32472366
216	0xbe8bf3b4	-0.27334368
217	0xbe0f9d8a	-0.1402494
218	0x3d01450c	0.03155999
219	0x3d940619	0.072277255
220	0xbe132cc3	-0.14372544
221	0x3e457527	0.19282971
222	0xbdb490f7	-0.08816712
223	0x3e1d20eb	0.15344588
224	0xbe8a7f01	-0.2705002
225	0x3e8b2bde	0.27181906
226	0x3dae982a	0.08525117
227	0x3d34e54f	0.044164
228	0xbe8049d2	-0.2505632
229	0xbd98a8a9	-0.07454044
230	0xbd7ef603	-0.062246334
231	0x3db84e30	0.08999288
232	0xbde03a72	-0.109486476
233	0x3d9a8851	0.075455315
234	0x3b8a9106	0.004228714
235	0x3cd84fec	0.026405297
236	0xbe13a972	-0.14420107
237	0x3d149d5a	0.036282875
238	0x3e513a09	0.20432295
239	0xbe04ca9f	-0.12967919
240	0x3e79ca48	0.2439357
241	0x3da7cda0	0.08193517
242	0x3e17a4f8	0.14809024
243	0xbdf1884a	-0.11793573
244	0x3e3f9fb5	0.18713267
245	0x3cb6cce3	0.022314494
246	0x3d34136f	0.043963846
247	0xbdf085fc	-0.117443055
248	0x3df9abc2	0.12190963
249	0xbda0e0ec	-0.078554004
250	0xbcb1725e	-0.02166098
251	0xbd7cdb5b	-0.06173263
252	0xbd6e1b5c	-0.05813156
253	0xbcc05040	-0.023475766
254	0xbd34d0e4	-0.044144526
255	0x3e5209e0	0.2051158

fc3.bias f4 [4]
0	0xbd2b6ddc	-0.041852817
1	0x3c4f4395	0.01265039
2	0xbd5770bc	-0.052597746
3	0x3ca99147	0.020699156
