weights/checkpoint_critic.pth (torch_old, 542544 bytes, 5 tensors)

fcs1.weight f4 [400, 33]
0.124545574 0.09158388 0.003891818 -0.5530338 -0.2256541 -0.042144667 0.41239256 0.019803056
-0.08938047 0.28791115 -0.019687232 0.06700093 -0.003463827 0.012205699 0.19176094 -0.17144099
0.15449698 -0.27128893 0.06817725 -0.14251463 0.07291327 -0.06233984 0.10208647 -0.14707765
0.034784097 -0.037829127 -0.011192238 0.21498418 -0.04425625 -0.032072395 -0.24497476 0.020004634
0.522381 0.07470638 0.5601723 -0.13879108 -0.10053091 0.24057353 -0.3445567 -0.08945165
-0.11456723 -0.31977203 0.11164374 0.046865817 0.09806827 -0.14166 -0.093832895 0.42960045
0.07761839 0.12989257 0.017657623 -0.13012823 0.021054974 -0.20015988 0.08713874 -0.275459
0.1109468 -0.075081386 -0.108662546 -0.021992343 0.19628161 -0.09542466 0.031498138 -0.1091318
-0.03546477 0.26042762 -0.108890295 0.27715585 -0.071154274 -0.34068334 0.31545937 0.0991285
-0.16464679 0.008253856 -0.42482308 -0.074432485 -0.1594912 0.07023403 -0.2014819 -0.12792787
0.35071298 -0.09969877 0.10979372 0.36878526 0.11157361 0.15095712 -0.13733096 -0.05414021
0.10816006 0.059583973 -0.14949061 -0.018891428 0.18014438 0.319951 0.07620927 -0.011843462
-0.34530538 -0.022013057 0.081191584 0.0034668585 0.29335722 0.23357803 0.051480964 0.2827691
-0.2498575 -0.12557538 0.19643727 -0.16528213 0.13981515 0.0572606 0.22821738 -0.14624454
0.030118639 0.45090643 0.016800497 0.0798564 -0.24028237 0.090711124 -0.29875898 0.119798884
0.08173285 -0.07450451 0.11546588 0.13681108 0.08021778 -0.1543928 0.2718991 -0.15290716
-0.031285264 -0.3226086 0.0010398515 -0.15201268 -0.13545881 0.12281509 0.10611342 -0.13870463
0.013458058 0.1379408 0.26262823 0.124916956 0.30833077 -0.30784068 -0.22047246 0.030858984
-0.2840096 0.11723352 -0.102731794 -0.06151861 0.3379042 0.37349728 -0.21373771 0.0859422
0.019616194 -0.07343711 0.19070481 0.16429216 -0.17772806 0.021158349 -0.0032750214 0.59859
0.042282354 -0.016741253 -0.59698534 0.041545507 -0.3295196 0.17347752 0.25736746 0.5391912
-0.21238916 0.088619806 0.054661516 0.11237384 0.08994987 -0.042575426 -0.1223818 0.07404789
0.06995703 0.06921212 0.0449288 -0.07559854 -0.12190868 0.10490827 0.19922595 -0.2602496
-0.18539618 0.03240688 0.08014656 0.049593896 0.07365388 -0.01996502 0.03850566 -0.10188994
0.44577336 -0.27794406 -0.03380834 -0.4144053 0.027915943 0.43154407 0.06162428 0.10579563
0.0073840194 0.25748911 0.096274786 -0.21157432 0.1524162 0.10378454 0.026697999 0.14553021
-0.01879457 0.08755953 -0.25616798 -0.14744002 0.097187184 -0.11841765 -0.008036989 -0.037092727
0.034163278 0.01099966 -0.17500502 0.02824641 -0.030347079 0.025429517 0.016879702 -0.108097345
0.18063939 0.17624764 0.0054015005 -0.022260953 -0.19494389 -0.017022885 -0.6151665 -0.17067216
0.054917175 -0.12314513 -0.12959695 0.45617938 0.06741358 -0.27031124 0.056138426 -0.29512984
-0.07409011 -0.11865537 0.02598877 -0.14325896 0.13177188 0.052963894 -0.13133697 -0.04212234
0.1211122 -0.37156996 0.2305231 -0.07898756 0.092319705 -0.10225654 0.09499667 0.051907014
00000000: c011 ff3d 5490 bb3d df0d 7f3b a093 0dbf
00000010: de11 67be e39f 2cbd 1e25 d33e 053a a23c
00000020: 1c0d b7bd 1769 933e 1e47 a1bc c937 893d
00000030: 6001 63bb 6afa 473c fb5c 443e 3a8e 2fbe
00000040: 7534 1e3e 62e6 8abe 84a0 8b3d 5bef 11be
00000050: 8d53 953d 0f58 7fbd b612 d13d 869b 16be
00000060: c579 0e3d b7f2 1abd a65f 37bc d024 5c3e
00000070: 0b46 35bd 585e 03bd aada 7abe c2e0 a33c
00000080: c3ba 053f a9ff 983d 7467 0f3f 401f 0ebe
00000090: 26e3 cdbd e858 763e bc69 b0be 6d32 b7bd
000000a0: 39a2 eabd 29b9 a3be 79a5 e43d 5ff6 3f3d
000000b0: 04d8 c83d 520f 11be 762b c0bd 97f4 db3e
000000c0: 64f6 9e3d 8f02 053e b8a6 903c 5640 05be
000000d0: 7b7b ac3c b6f6 4cbe cc75 b23d f608 8dbe
000000e0: 1338 e33d 45c4 99bd 788a debd 4929 b4bc
000000f0: 0cfe 483e 016e c3bd 3104 013d 7e80 dfbd
00000100: 8243 11bd c556 853e e001 dfbd 5fe7 8d3e
00000110: 55b9 91bd 0c6e aebe e483 a13e e203 cb3d
00000120: 2b99 28be 2e3b 073c 6982 d9be 0f70 98bd
00000130: a951 23be dcd6 8f3d 4551 4ebe 86ff 02be
00000140: a790 b33e de2e ccbd 88db e03d 6cd1 bc3e
00000150: b480 e43d 8194 1a3e 7da0 0cbe 20c2 5dbd
00000160: 0683 dd3d 530e 743d 1114 19be 32c2 9abc
00000170: c577 383e 9ed0 a33e 9b13 9c3d 140b 42bc
00000180: decb b0be ba54 b4bc c647 a63d 3c34 633b
00000190: eb32 963e 142f 6f3e b4dd 523d 1dc7 903e
000001a0: a5da 7fbe d596 00be da26 493e b83f 29be
000001b0: b42b 0f3e 178a 6a3d d1b1 693e 21c1 15be
000001c0: 5dbb f63c 35dd e63e 32a1 893c c18b a33d
000001d0: 950c 76be c1c6 b93d f0f6 98be 1e59 f53d
000001e0: 8d63 a73d d295 98bd 6079 ec3d 3418 0c3e
000001f0: 3849 a43d 2519 1ebe 5c36 8b3e b293 1cbe
00000200: fa24 00bd f42c a5be a04b 883a 36a9 1bbe
00000210: b7b5 0abe 7a86 fb3d fe51 d93d 9608 0ebe
00000220: 307f 5c3c 5a40 0d3e 3577 863e 76d4 ff3d
00000230: 88dd 9d3e 4b9d 9dbe 88c3 61be fbcb fc3c
00000240: b569 91be 2118 f03d 0c65 d2bd f0fa 7bbd
00000250: c801 ad3e 093b bf3e 0fde 5abe 7702 b03d
00000260: 24b2 a03c 3266 96bd 1f48 433e 343c 283e
00000270: 58fe 35be 4654 ad3c bea1 56bb 323d 193f
00000280: 4330 2d3d f424 89bc 08d4 18bf 9f2b 2a3d
00000290: cbb6 a8be 17a4 313e abc5 833e 6f08 0a3f
000002a0: 8b7c 59be 4d7e b53d c1e4 5f3d 4124 e63d
000002b0: a337 b83d 9263 2ebd 4fa3 fabd 6ca6 973d
000002c0: a245 8f3d 15bf 8d3d 4307 383d 68d3 9abd
000002d0: 42ab f9bd 26da d63d e301 4c3e 703f 85be
000002e0: 7fd8 3dbe 14bd 043d e123 a43d f822 4b3d
000002f0: d8d7 963d ae8d a3bc 1cb8 1d3d acab d0bd
00000300: 683c e43e af4e 8ebe 9d7a 0abd ee2c d4be
00000310: faaf e43c 58f3 dc3e be69 7c3d 61ab d83d
00000320: a5f5 f13b 9dd5 833e b72b c53d f0a6 58be
00000330: fe12 1c3e fd8c d43d c3b5 da3c df05 153e
00000340: 12f7 99bc 6952 b33d 7328 83be 84fa 16be
00000350: 130a c73d f484 f2bd 93ad 03bc 8bee 17bd
00000360: cbee 0b3d eb37 343c 8434 33be 0465 e73c
00000370: 709a f8bc 9051 d03c 4d47 8a3c 2462 ddbd
00000380: 88f9 383e 437a 343e 12ff b03b 9a5c b6bc
00000390: 5f9f 47be 9473 8bbc 8d7b 1dbf afc4 2ebe
000003a0: d5f0 603d 8433 fcbd 10b5 04be 5890 e93e
000003b0: 2210 8a3d 3c66 8abe 68f1 653d 421b 97be
000003c0: 8ebc 97bd 9601 f3bd 67e6 d43c 7ab2 12be
000003d0: 35ef 063e abf0 583d 337d 06be 7a88 2cbd
000003e0: ac09 f83d 6b3e bebe 3f0e 6c3e 3bc4 a1bd
000003f0: 1d12 bd3d e06b d1bd 9d8d c23d 739c 543d

fcs1.bias f4 [400]
-0.07999625 -0.024678871 -0.20740551 -0.20734407 -0.51604784 -0.26120073 -0.055835675 -0.43217444
-0.31826568 -0.57892466 -0.32364732 0.12621513 -0.26373547 -0.26778948 -0.18387032 -0.21525906
-0.014650204 -0.34505084 -0.38962895 -0.05157735 -0.5592304 -0.19881964 -0.21032506 -0.15156364
-0.47381985 -0.36018354 -0.32666832 -0.41050953 -0.1518928 -0.3337659 -0.39128557 -0.2383934
-0.15066263 -0.39794707 -0.20406039 0.004224261 -0.59286594 -0.5240506 -0.29949138 -0.5018191
-0.3070955 -0.29710904 -0.22579734 -0.15043359 -0.3846569 -0.2981356 -0.3345198 0.036517013
-0.2906914 -0.4865691 -0.5501063 -0.19087592 -0.45478058 -0.5040542 -0.40272534 -0.35310608
-0.09772935 -0.18380879 -0.32674405 0.112083614 -0.52859634 -0.35683426 -0.29086158 -0.52778906
-0.5690964 -0.06376174 -0.5616115 -0.5048452 -0.55445844 -0.22017495 -0.42984158 -0.43963397
-0.2986646 -0.3324218 -0.32671955 -0.43291727 -0.38674998 -0.47723058 -0.42291325 -0.35274038
-0.5896119 -0.3198088 -0.40740174 -0.2619262 -0.29554802 -0.56881934 0.21142262 -0.22342262
-0.46906576 -0.5230156 -0.27589488 -0.16608167 -0.09388318 -0.27692622 -0.14032866 -0.2896916
-0.2529862 -0.65959793 -0.3539556 -0.4579984 -0.43542814 -0.25083867 -0.46317264 -0.32743514
-0.29539433 -0.33146086 -0.14247967 -0.41493648 -0.4634833 -0.41717094 -0.27497524 -0.4885
-0.23178418 -0.059209414 -0.48067456 -0.35579225 -0.43254513 -0.52674395 -0.35041797 -0.2018828
-0.014990723 -0.42192322 -0.35616058 -0.21022029 -0.60530496 -0.15305185 -0.17737395 -0.2329742
-0.5464877 -0.2669193 -0.20035417 -0.17293441 -0.23244055 -0.40337974 -0.09496789 -0.37164688
-0.55629724 -0.35363272 -0.4795245 -0.6102723 -0.33718148 -0.14697786 -0.5962858 -0.041823313
-0.118009575 -0.67760456 -0.39169404 -0.16748777 -0.61836636 -0.14503132 -0.42343536 0.06106242
-0.34720263 0.112465724 -0.29826865 -0.29755744 -0.5087485 -0.57891196 -0.19206142 -0.56299233
-0.2303438 -0.410507 -0.43890023 -0.23214129 -0.25950193 -0.063120574 -0.36871395 -0.3784218
-0.3557498 -0.26100802 -0.11885158 -0.2847612 -0.3112501 -0.325861 -0.33883247 -0.5323179
-0.23734993 -0.40535885 -0.41459954 -0.33650142 -0.3607623 -0.50720346 -0.09611566 -0.0553278
-0.37890357 -0.4994055 -0.33974808 -0.14668258 -0.30444106 -0.35585243 -0.5658101 -0.6255129
-0.4717668 -0.30559126 -0.28050202 -0.55190265 -0.2186517 -0.40548205 -0.25435448 -0.3646874
-0.51302165 -0.42725334 -0.23856477 -0.12329126 -0.15061557 -0.29170933 -0.48138392 -0.5183319
-0.35150424 -0.5321705 -0.52975225 -0.18292318 -0.50398797 -0.2846471 -0.29275894 -0.3837752
-0.3546033 -0.4824364 -0.34568205 -0.101275586 -0.32134554 -0.35260728 -0.15459125 -0.41603136
-0.34736377 -0.12434343 -0.2343851 -0.5403268 -0.3927313 -0.26337293 -0.56069297 -0.46839586
-0.47381762 -0.4256634 -0.30510068 -0.16680509 -0.2391414 -0.27413148 -0.33438432 0.038719267
-0.22867934 -0.4990687 -0.24458557 -0.4082165 -0.13660088 -0.353334 -0.12507248 -0.30150184
-0.5235926 -0.40720814 -0.17277619 -0.24107249 -0.07896389 -0.5304631 -0.15103324 -0.36506376
00000000: 13d5 a3bd 582b cabc 1c62 54be 0152 54be
00000010: b61b 04bf 1abc 85be f3b3 64bd f845 ddbe
00000020: b8f3 a2be 6834 14bf 1ab5 a5be 8a3e 013e
00000030: 5608 87be b41b 89be 8048 3cbe df6c 5cbe
00000040: 6907 70bc 81aa b0be 727d c7be c542 53bd
00000050: b929 0fbf 6097 4bbe 745f 57be 8033 1bbe
00000060: 8498 f2be fa69 b8be 1241 a7be 4e2e d2be
00000070: c989 1bbe 5de3 aabe 9556 c8be 661d 74be
00000080: 4e47 1abe b8bf cbbe 35f5 50be ab6b 8a3b
00000090: 10c6 17bf 2e28 06bf ef56 99be 3777 00bf
000000a0: 9f3b 9dbe ad1e 98be 6b37 67be 430b 1abe
000000b0: c0f1 c4be 3ba5 98be 2e46 abbe dd92 153d
000000c0: 81d5 94be 961f f9be c4d3 0cbf fa74 43be
000000d0: 00d9 e8be b209 01bf 0432 cebe 52ca b4be
000000e0: 5326 c8bd 5f38 3cbe ff4a a7be 188c e53d
000000f0: 1752 07bf fbb2 b6be cfeb 94be 2f1d 07bf
00000100: 4db0 11bf 8495 82bd c5c5 0fbf 893d 01bf
00000110: fdf0 0dbf 8b75 61be 3214 dcbe b417 e1be
00000120: 91ea 98be 3133 aabe c947 a7be 55a7 ddbe
00000130: 1804 c6be 9157 f4be 1688 d8be 639a b4be
00000140: cef0 16bf fbbd a3be f696 d0be 311b 86be
00000150: 1252 97be 259e 11bf 2c7f 583e e6c8 64be
00000160: 6329 f0be 5ae4 05bf 1842 8dbe 5011 2abe
00000170: d345 c0bd 46c9 8dbe 51b2 0fbe 7552 94be
00000180: 6887 81be 69db 28bf ab39 b5be c47e eabe
00000190: 70f0 debe ed6d 80be f724 edbe 94a5 a7be
000001a0: ed3d 97be 3db5 a9be 31e6 11be 8e72 d4be
000001b0: af4d edbe 6e97 d5be 8ec9 8cbe ac1c fabe
000001c0: d558 6dbe 9285 72bd fa1a f6be 672a b6be
000001d0: 8e76 ddbe b1d8 06bf fc69 b3be 5dba 4ebe
000001e0: a69b 75bc 5206 d8be ae5a b6be fd43 57be
000001f0: 44f5 1abf a0b9 1cbe 84a1 35be ca90 6ebe
00000200: 9ee6 0bbf a6a9 88be a529 4dbe b815 31be
00000210: e504 6ebe ca87 cebe 867e c2bd 8048 bebe
00000220: 7f69 0ebf 590f b5be 3c84 f5be ce3a 1cbf
00000230: 0da3 acbe 5d81 16be 30a6 18bf ec4e 2bbd
00000240: 01af f1bd 7e77 2dbf 1f8c c8be ea81 2bbe
00000250: 424d 1ebf 1783 14be 85cc d8be 971c 7a3d
00000260: 8bc4 b1be 6e54 e63d abb6 98be 7359 98be
00000270: 573d 02bf 9333 14bf c0ab 44be 4420 10bf
00000280: 3fdf 6bbe f92d d2be 88b7 e0be 72b6 6dbe
00000290: 70dd 84be 5c45 81bd 13c8 bcbe 81c0 c1be
000002a0: d624 b6be d8a2 85be 7568 f3bd 38cc 91be
000002b0: 2c5c 9fbe 41d7 a6be 737b adbe fc45 08bf
000002c0: dc0b 73be 328b cfbe 6446 d4be ea49 acbe
000002d0: d6b5 b8be 16d8 01bf 4ad8 c4bd 679f 62bd
000002e0: a6ff c1be 14b2 ffbe 76f3 adbe f533 16be
000002f0: b3df 9bbe 4a32 b6be eed8 10bf 9d21 20bf
00000300: 6b8b f1be 7576 9cbe f69d 8fbe 7e49 0dbf
00000310: 3be6 5fbe 589b cfbe c03a 82be 4fb8 babe
00000320: 6355 03bf f3c0 dabe 534a 74be 2180 fcbd
00000330: f83a 1abe ed5a 95be f477 f6be 66b1 04bf
00000340: 5df8 b3be 533c 08bf d89d 07bf 3750 3bbe
00000350: 5b05 01bf 44bd 91be 80e4 95be 2f7e c4be
00000360: 908e b5be e701 f7be 3dfd b0be 9369 cfbd
00000370: 6787 a4be f188 b4be 2b4d 1ebe 1002 d5be
00000380: aad9 b1be c5a7 febd a602 70be db52 0abf
00000390: 1414 c9be d1d8 86be 9389 0fbf 95d1 efbe
000003a0: 3998 f2be 8ef0 d9be 2836 9cbe f4ce 2abe
000003b0: 7ce1 74be f65a 8cbe 6c34 abbe 1898 1e3d
000003c0: eb2a 6abe ef85 ffbe a474 7abe c101 d1be
000003d0: 1ae1 0bbe 32e8 b4be 0013 00be 735e 9abe
000003e0: 2a0a 06bf 967d d0be 3eec 30be b5db 76be
000003f0: d2b7 a1bd 6ecc 07bf 75a8 1abe a3e9 babe

fc2.weight f4 [300, 404]
0.008590021 -0.045870494 -0.021772543 0.034689754 0.025827331 -0.057446714 -0.044678047 -0.022403222
0.019819938 -0.021952696 -0.071602196 -0.028957883 -0.044215385 0.015245526 -0.028713621 -0.060414325
-0.031683143 0.034184005 0.034653503 0.030336397 -0.028107928 0.019830853 0.03751736 -0.008869664
-0.043885093 -0.068660416 -0.00080977654 0.0042905477 -0.07270058 -0.037196055 -0.06214061 -0.03827277
-0.05295386 -0.04898235 -0.027032014 -0.054611195 -0.0017611093 -0.08895524 -0.063909076 -0.06621153
0.044491775 0.015825387 -0.05595507 -0.028056031 0.025178613 0.0029916647 0.004614804 -0.0006012285
0.0225789 0.0017614204 0.039097317 -0.07289686 -0.052203313 -0.04057882 -0.054188505 -0.06250553
0.022115698 -0.04350713 0.014106139 -0.05909578 -0.023367744 0.0234922 -0.036351513 -0.027663924
-0.027020114 -0.013933841 -0.007981257 -0.04164003 -0.002902571 -0.0062365215 0.009392073 0.052968703
-0.01536105 -0.008584793 0.029353658 -0.064996734 -0.0016972076 -0.09142895 -0.053612463 -0.082121044
-0.036739755 0.024357202 -0.022187378 0.006275884 -0.03686686 0.001908286 -0.031131977 -0.07978807
0.033968642 -0.0043614977 0.04491371 -0.006890495 -0.08914404 -0.002436704 0.009086001 -0.050548352
0.03741502 0.020890918 -0.011190391 -0.057586297 0.032323502 0.0041521494 0.035822164 -0.078887306
-0.070068635 -0.031090166 -0.08344922 -0.004222521 0.03549964 0.0019188805 0.001609047 0.0040854565
-0.06780475 -0.10219146 -0.0641845 -0.005713187 -0.08271411 -0.0135015305 -0.033999775 -0.048613764
-0.03253404 0.030786462 0.030726569 -0.060935613 -0.027807025 -0.056624327 0.024269411 -0.0803778
-0.004161706 0.0036650815 -0.0038012112 -0.031910177 0.022875289 0.012591264 -0.06268756 -0.03658951
-0.037076708 -0.019774366 -0.053000085 0.040307157 0.036753897 -0.04761539 0.02771901 -0.096675545
0.01665821 0.00574678 0.04238197 -0.05650779 -0.046162948 -0.009041832 0.011539805 -0.06441719
0.019880768 -0.018687274 -0.039999858 0.018245734 -0.023199813 0.00055270124 -0.040006384 -0.045202225
-0.026398884 -0.008660128 0.022628287 -0.014106111 -0.060722653 -0.06508751 0.030007703 -0.030878255
0.023259498 -0.04031304 -0.05851739 -0.00319701 -0.06067884 -0.0955958 -0.04729616 -0.05965253
-0.04879563 -0.017349686 -0.011640956 -0.024225906 0.03868285 0.03672173 0.020910786 0.04238502
-7.3933434e-06 -0.07233697 -0.017813716 -0.07729308 0.018576695 -0.04911117 -0.02794581 -0.057799112
-0.032277916 -0.043942343 -0.06473424 -0.05772655 -0.028765507 0.018432619 -0.028521156 0.008935023
0.023925412 0.027747862 0.02323895 0.011837307 -0.03877554 -0.0066593275 0.044318102 0.017427249
-0.054274365 -0.03202156 0.033016477 -0.053082325 -0.053993996 -0.052431658 -0.09190273 -0.05785917
-0.027294738 -0.037376717 -0.04507828 0.0127318455 0.025053732 -0.05096105 -0.06030183 -0.043089133
-0.02095726 -0.030268686 -0.02536029 -0.0458756 -0.0105942795 -0.026847579 -0.009799181 0.028117057
-0.0017329905 -0.02213148 -0.055226058 -0.03473621 0.039908566 -0.072941154 -0.06911145 -0.02821365
0.0013912458 -0.0014452772 0.0269243 0.0064624017 -0.01583859 0.013158224 0.031064559 -0.076509014
-0.060171023 -0.0032925496 0.022526383 0.04227084 -0.016693154 0.017556047 -0.04426495 -0.022726128
00000000: 29bd 0c3c b3e2 3bbd 555c b2bc d816 0e3d
00000010: d793 d33c 3f4d 6bbd 5400 37bd f686 b7bc
00000020: 6c5d a23c 24d6 b3bc 2ca4 92bd 1539 edbc
00000030: 311b 35bd 5fc8 793c d438 ebbc 0375 77bd
00000040: 2fc6 01bd 8704 0c3d d5f0 0d3d 0984 f83c
00000050: 9942 e6bc 5074 a23c ceab 193d 1152 11bc
00000060: dbc0 33bd d59d 8cbd 2f47 54ba b997 8c3b
00000070: 0be4 94bd e45a 18bd 2787 7ebd e8c3 1cbd
00000080: 26e6 58bd b7a1 48bd 3e72 ddbc fdaf 5fbd
00000090: 06d5 e6ba 2a2e b6bd c3e2 82bd e999 87bd
000000a0: 023d 363d 3ea4 813c 2531 65bd c3d5 e5bc
000000b0: 6143 ce3c ce0f 443b c837 973b c39b 1dba
000000c0: 63f7 b83c 76df e63a 8224 203d f34a 95bd
000000d0: 24d3 55bd fa35 26bd c4f4 5dbd e602 80bd
000000e0: fb2b b53c 8834 32bd 6f1d 673c 6b0e 72bd
000000f0: b66d bfbc b772 c03c 53e5 14bd 749f e2bc
00000100: 4959 ddbc c44a 64bc d1c3 02bc bc8e 2abd
00000110: 1039 3ebb bc5b ccbb 36e1 193c b6f5 583d
00000120: eaac 7bbc 3ba7 0cbc 1577 f03c 021d 85bd
00000130: d674 deba 1a3f bbbd be98 5bbd 142f a8bd
00000140: 6d7c 16bd c188 c73c 4ec2 b5bc eea5 cd3b
00000150: b401 17bd 741f fa3a 7d08 ffbc ed67 a3bd
00000160: b422 0b3d e5ea 8ebb 70f7 373d a9c9 e1bb
00000170: 2791 b6bd 1cb1 1fbb 73dd 143c ca0b 4fbd
00000180: 7e40 193d 6e23 ab3c e757 37bc 9cdf 6bbd
00000190: a665 043d c10e 883b 43ba 123d ab8f a1bd
000001a0: 2580 8fbd ceb0 febc 6de7 aabd 135d 8abb
000001b0: 1268 113d f282 fb3a a8e6 d23a 4bdf 853b
000001c0: 37dd 8abd c249 d1bd 2a73 83bd b035 bbbb
000001d0: 0466 a9bd 8635 5dbc 5943 0bbd 3a1f 47bd
000001e0: 6a42 05bd e433 fc3c 49b6 fb3c 9f97 79bd
000001f0: 8fcb e3bc e9ee 67bd a5d0 c63c 1e9d a4bd
00000200: ec5e 88bb dd31 703b be1d 79bb 3fb4 02bd
00000210: f564 bb3c 974b 4e3c 5662 80bd e2de 15bd
00000220: bfdd 17bd dafd a1bc 9e16 59bd 1e19 253d
00000230: 418b 163d 5b08 43bd fa12 e33c d4fd c5bd
00000240: cc76 883c 7c4f bc3b b798 2d3d b674 67bd
00000250: 5c15 3dbd 3124 14bc 7311 3d3c 29ed 83bd
00000260: fedc a23c 0e16 99bc e4d6 23bd 1478 953c
00000270: 890d bebc 27e3 103a bcdd 23bd f825 39bd
00000280: 7942 d8bc 36e3 0dbc f55e b93c 511d 67bc
00000290: 51b8 78bd 9a4c 85bd b7d2 f53c 65f4 fcbc
000002a0: b48a be3c 491f 25bd eeaf 6fbd ed84 51bb
000002b0: 608a 78bd bbc7 c3bd 9eb9 41bd 3656 74bd
000002c0: eddd 47bd ee20 8ebc b5b9 3ebc 6875 c6bc
000002d0: e871 1e3d 8669 163d 194d ab3c ea9b 2d3d
000002e0: 5614 f8b6 6825 94bd 12ee 91bc d64b 9ebd
000002f0: 272e 983c cb28 49bd 9dee e4bc c3be 6cbd
00000300: d935 04bd e3fc 33bd 6393 84bd ad72 6cbd
00000310: a4a5 ebbc 0100 973c 33a5 e9bc 3464 123c
00000320: 3aff c33c 7c4f e33c 9c5f be3c 44f1 413c
00000330: 1ad3 1ebd 7d36 dabb e686 353d 97c3 8e3c
00000340: cc4e 5ebd 0a29 03bd 493c 073d da6c 59bd
00000350: cf28 5dbd 94c2 56bd 8037 bcbd bdfd 6cbd
00000360: 3799 dfbc 5418 19bd 01a4 38bd 3b99 503c
00000370: 7c3d cd3c 89bc 50bd 0dff 76bd 3b7e 30bd
00000380: 8fae abbc 09f6 f7bc 62c0 cfbc 0ee8 3bbd
00000390: a193 2dbc 74ef dbbc be8c 20bc be55 e63c
000003a0: 8325 e3ba 144d b5bc b834 62bd 8e47 0ebd
000003b0: 2a77 233d 2c62 95bd 4e8a 8dbd 5020 e7bc
000003c0: 765a b63a 756f bdba 5990 dc3c 8ec2 d33b
000003d0: eebf 81bc 9795 573c 1a7b fe3c c2b0 9cbd
000003e0: e475 76bd d1c7 57bb 4089 b83c 3024 2d3d
000003f0: 15c0 88bc b3d1 8f3c 2a4f 35bd 252c babc

fc2.bias f4 [300]
-0.062078405 0.36885598 0.36732325 -0.008813302 0.034387734 0.570174 0.0053367936 -0.069358595
-0.15958627 -0.20334062 0.06509098 -0.023480393 -0.0011394335 -0.057615634 -0.086078554 -0.16157308
-0.007880204 -0.099871084 -0.19574483 -0.16047253 -0.07353787 -0.007875498 -0.045449164 -0.058017153
-0.13803466 0.2851898 -0.10911333 -0.09886148 -0.098377585 -0.103783995 0.19756512 -0.06318215
-0.04788769 -0.1508765 -0.057139974 0.05109681 -0.0784083 -0.06382109 -0.061298743 -0.010147343
-0.083691016 0.22187965 0.37334493 -0.026374627 0.21054052 0.094076924 -0.048986234 -0.04471675
-0.034747586 -0.016432075 0.3523625 -0.015061257 0.13052522 -0.05113975 -0.09619046 -0.043155033
-0.03665944 -0.10696821 -0.11134474 -0.03706146 -0.10711947 -0.074246466 -0.17730217 0.36998582
0.082688324 -0.064387605 -0.071598716 0.19610757 0.5189998 0.25878057 0.14209114 -0.04825164
-0.00973304 -0.0660761 -0.033844527 0.09888642 -0.05183728 0.18471844 -0.08501669 -0.1703753
-0.11538114 -0.12670133 -0.090569556 0.058895703 0.42420042 -0.08649142 -0.114418924 0.50542265
0.0015146718 -0.113152795 0.017705014 -0.2274901 -0.046061374 -0.012356779 -0.078071274 -0.2268582
-0.030967822 -0.065790296 0.70181745 -0.0292237 -0.039572433 -0.04778683 -0.06418394 -0.1136397
-0.021797752 -0.015772376 0.4555556 0.27346826 -0.058485404 -0.015698005 -0.05389996 -0.061177067
-0.05228771 -0.0069443705 -0.05991197 0.071127474 -0.051627275 -0.030267658 0.37946582 -0.041218843
-0.0704394 -0.1168281 0.38393793 -0.09714353 0.30282974 -0.097438626 -0.12572725 -0.14269346
-0.13676338 -0.0799773 -0.06375736 -0.19722329 -0.01968269 -0.1338263 -0.148011 -0.027787566
-0.058576267 -0.045952264 -0.008474136 0.021816002 -0.0981283 -0.07627747 -0.024051936 -0.039692037
-0.049961843 -0.105113804 -0.10307507 -0.06862447 -0.09850135 0.46564144 -0.24047476 -0.02894517
0.21533823 -0.060176164 0.071032606 0.33729026 -0.041746557 -0.11013706 0.18993673 -0.03760618
0.030040666 -0.05891115 -0.052467726 -0.08313896 -0.09441402 -0.07233372 0.30417448 -0.019965613
-0.102587074 -0.062372375 -0.20403376 -0.050225686 -0.018046912 -0.058203332 -0.15523398 -0.038443528
-0.06917484 -0.063141584 -0.11236406 -0.03663054 -0.098333165 -0.07690639 -0.0062286276 -0.08056542
-0.09032499 -0.07094874 -0.20638795 -0.06339238 -0.052193806 -0.06407231 -0.20653377 -0.059146807
-0.18173788 0.021604352 0.25226003 -0.05266118 -0.06375479 -0.012437753 -0.027697446 -0.055321585
-0.008790722 0.0013328447 -0.00437374 -0.060018744 -0.053054053 0.031169387 0.1032088 -0.05671257
-0.051242046 -0.039308824 -0.19756395 -0.05271751 0.09271508 0.006073959 -0.06650639 -0.08593846
0.07481356 -0.10194825 0.0012190784 -0.06859766 -0.051329967 0.17621368 -0.047530588 -0.065415114
-0.022092678 -0.0077260328 -0.056257475 -0.091787554 0.13101368 -0.15431236 -0.11123193 -0.17524412
0.017247941 -0.15037327 -0.073156334 0.020873202 -0.031637616 -0.039928254 -0.054315526 -0.08562698
0.044266574 -0.0773866 -0.16119134 -0.06571309 -0.05309477 -0.07197719 0.5599547 -0.048924208
-0.011157733 -0.03097158 -0.07563962 -0.041693058 -0.063772604 0.29055867 0.37153646 -0.085655704
00000000: ed45 7ebd b1da bc3e cb11 bc3e ab65 10bc
00000010: 27da 0c3d ecf6 113f 45e0 ae3b e10b 8ebd
00000020: 956a 23be 8638 50be 6b4e 853d f459 c0bc
00000030: 0b59 95ba 5ffe 6bbd f449 b0bd 6a73 25be
00000040: f91b 01bc 3689 ccbd 5571 48be e952 24be
00000050: 069b 96bd 3c08 01bc e728 3abd 65a3 6dbd
00000060: f558 0dbe 6604 923e cf76 dfbd e377 cabd
00000070: 307a c9bd b48c d4bd 834e 4a3e a565 81bd
00000080: e225 44bd 5f7f 1abe 9b0b 6abd e34a 513d
00000090: 8894 a0bd a2b4 82bd 6414 7bbd 0b41 26bc
000000a0: 3266 abbd 6b34 633e 1127 bf3e 9a0f d8bc
000000b0: ef97 573e 67ab c03d caa5 48bd e928 37bd
000000c0: 7c53 0ebd 8f9c 86bc dc68 b43e 7ec3 76bc
000000d0: 67a8 053e ea77 51bd 81ff c4bd 55c3 30bd
000000e0: 3528 16bd 2612 dbbd b608 e4bd c2cd 17bd
000000f0: 7461 dbbd 880e 98bd b38e 35be c86e bd3e
00000100: 7f58 a93d a6dd 83bd 59a2 92bd 6cd0 483e
00000110: 2cdd 043f e37e 843e 5780 113e 83a3 45bd
00000120: 5477 1fbc e852 87bd 8fa0 0abd f784 ca3d
00000130: 5453 54bd d526 3d3e 3b1d aebd dd76 2ebe
00000140: f24c ecbd febd 01be 887c b9bd 9f3c 713d
00000150: cc30 d93e 6a22 b1bd 7854 eabd 6163 013f
00000160: f487 c63a a7bc e7bd 1b0a 913c 2af3 68be
00000170: daaa 3cbd 1674 4abc d5e3 9fbd 844d 68be
00000180: 3bb0 fdbc 10bd 86bd 4faa 333f 8a66 efbc
00000190: b416 22bd 20bc 43bd df72 83bd eebb e8bd
000001a0: 3391 b2bc 1235 81bc 953e e93e 0804 8c3e
000001b0: 648e 6fbd 1a99 80bc 34c6 5cbd ce94 7abd
000001c0: a32b 56bd 9a8d e3bb 4166 75bd 48ab 913d
000001d0: 1f77 53bd e1f3 f7bc 5849 c23e 17d5 28bd
000001e0: 8842 90bd 9243 efbd 8393 c43e 30f3 c6bd
000001f0: 800c 9b3e e78d c7bd a5be 00be 3c1e 12be
00000200: b30b 0cbe 23cb a3bd 3893 82bd e7f4 49be
00000210: 983d a1bc c309 09be 3290 17be c0a2 e3bc
00000220: abed 6fbd 7138 3cbd 1ad7 0abc 79b7 b23c
00000230: 7df7 c8bd 5d37 9cbd 9108 c5bc 1e94 22bd
00000240: caa4 4cbd e845 d7bd 0619 d3bd fc8a 8cbd
00000250: 13bb c9bd 8e68 ee3e 043f 76be 6c1e edbc
00000260: a081 5c3e 487b 76bd 8b79 913d 4fb1 ac3e
00000270: 70fe 2abd 8a8f e1bd c67e 423e f008 1abd
00000280: d817 f63c d14c 71bd 66e8 56bd c244 aabd
00000290: 235c c1bd b423 94bd c2bc 9b3e ed8e a3bc
000002a0: 2c19 d2bd 2d7a 7fbd 3aee 50be 73b9 4dbd
000002b0: 1ed7 93bc 9e66 6ebd a8f5 1ebe f676 1dbd
000002c0: 8aab 8dbd 6050 81bd 211f e6bd e809 16bd
000002d0: e662 c9bd 1981 9dbd 8419 ccbb 7cff a4bd
000002e0: 4ffc b8bd 934d 91bd 5d57 53be ddd3 81bd
000002f0: 2cc9 55bd 5838 83bd 977d 53be ec43 72bd
00000300: 7f19 3abe 9cfb b03c 3a28 813e 40b3 57bd
00000310: df91 82bd b8c7 4bbc c1e5 e2bc e398 62bd
00000320: f606 10bc d9b2 ae3a 9751 8fbb 37d6 75bd
00000330: 354f 59bd f156 ff3c 235f d33d 714b 68bd
00000340: 2ee3 51bd 4a02 21bd 344e 4abe 51ee 57bd
00000350: 67e1 bd3d 1008 c73b 8134 88bd 8100 b0bd
00000360: da37 993d 3eca d0bd 7cc9 9f3a ee7c 8cbd
00000370: 5f3f 52bd 5c71 343e 6faf 42bd 5cf8 85bd
00000380: b4fb b4bc a92a fdbb 3d6e 66bd 1dfb bbbd
00000390: 7328 063e 0f04 1ebe 91cd e3bd 3273 33be
000003a0: 8e4b 8d3c 73fb 19be fdd2 95bd 47fe aa3c
000003b0: 7296 01bd cf8b 23bd f579 5ebd 335d afbd
000003c0: de50 353d de7c 9ebd 580f 25be 9694 86bd
000003d0: e779 59bd c768 93bd 3159 0f3f c064 48bd
000003e0: edce 36bc 1cb8 fdbc f2e8 9abd 57c6 2abd
000003f0: 369b 82bd 1bc4 943e 073a be3e 426c afbd

fc3.weight f4 [1, 300]
-0.015752524 0.033990767 0.018422913 0.0775997 0.05010101 0.07376755 -0.002789857 -0.0013493228
0.012005355 -0.029365964 0.03893764 0.0002359945 0.017405292 -0.0057843598 0.012647977 -0.1063237
-0.009304615 -0.0018818827 -0.040854864 -0.0022423854 -0.003382907 0.06149715 -0.024033055 0.010100706
-0.16972288 0.037880164 0.001716279 -0.055511866 0.00015224467 -0.00022350348 0.013962396 0.013397246
-0.011393931 -0.13070752 -0.0035846327 0.039564725 0.009742105 0.0004807093 -0.009369532 0.017583907
-0.0064653135 0.030519981 0.041203756 -0.0015068332 0.01885817 0.05658895 0.0017523265 0.08269868
0.10576216 0.020887421 0.037564665 -0.01126933 0.026126597 0.014873911 -0.0018453507 -0.0041050008
-0.008063571 -0.006610281 -0.0761828 0.0045382692 0.010432155 0.06910198 -0.02727168 0.03625298
0.033817858 0.01969283 -0.00865584 0.01904657 0.045711 0.017277757 0.035625122 0.021081962
0.04189561 -0.010546058 0.010070106 0.03071693 -0.025923116 0.03681037 0.009041016 -0.029229023
-0.004361844 -0.03376902 -0.016253358 0.010926388 0.04629356 -0.0013073083 0.0040478483 0.045023184
0.027408117 0.11485568 -0.0007156283 -0.039688956 -0.00012546663 0.030625263 0.0035290283 -0.06826091
0.010648923 0.010594017 0.07964539 0.000394944 0.02381638 0.00485898 -0.0050787334 0.0082160635
0.08853874 0.016193291 0.03431874 0.027521959 -0.02115232 -0.0009935363 0.07834704 -0.018828439
-0.010036119 0.0076440494 0.0018770163 0.07809608 0.016556475 0.004119589 0.03647293 -0.0124929305
-0.00053048175 -0.041279417 0.028040985 0.028520834 0.026409179 -0.0006779333 -0.07664881 -0.08913739
-0.027818093 0.012977025 -0.0036803705 -0.047705214 0.0502034 -0.13389772 -0.02509372 -0.13176143
-0.027250094 0.051011972 -0.013662258 0.023463933 -0.0054239784 -0.010182256 -0.002567698 0.0274479
-0.00067094417 -0.033061646 -0.01597114 -0.087018915 -0.04117493 0.049750187 -0.029159918 -0.0052130874
0.020255363 -0.0066663697 0.02103958 0.021656597 0.0022837364 0.042932767 0.05420655 -0.0014586936
0.039894074 0.028184641 -0.0042990325 0.016046496 0.00047902617 0.0014288721 0.02519529 -0.0031410104
-0.05835942 0.047943506 -0.032519605 -0.018275771 -0.0097105 0.0008644523 -0.03251359 -0.000727734
0.00894467 0.01975064 -0.03697234 0.025103617 0.06376575 0.020945108 0.015997 -0.06556575
0.011578434 -0.10626088 -0.046752434 0.009766305 -0.0013831056 0.004087387 -0.035135396 0.019304771
-0.035223212 -0.013173943 0.016143402 0.108020894 0.010688629 -0.0037997593 0.03683214 -0.09658731
-0.0055550397 -0.0027489897 0.0011778898 0.0010430644 -0.0024150384 0.039318297 0.040007245 0.0076447506
0.011626768 0.017625678 -0.022320427 0.0068865544 0.03445583 0.004325099 -0.0020170403 0.0035317156
0.023679344 -0.10373515 0.01963848 -0.0009251096 -0.0024054137 0.03607546 0.00928575 0.004743687
0.0024485728 0.084144145 -0.008919119 0.002789023 0.029630005 -0.03244065 -0.014762575 -0.033047188
0.09653192 -0.050100733 0.007101469 0.039447993 -0.0066814213 0.0085773915 -0.0028894576 -0.018366048
0.03520924 0.035058342 -0.037831493 -0.010546797 -0.014254366 -0.0037485796 0.04648431 -0.0069048437
0.0010214385 0.0031282213 -0.012111653 0.0031396234 -0.009175721 0.028271046 0.031970948 0.012082742
00000000: 700b 81bc e739 0b3d a6eb 963c 97ec 9e3d
00000010: b736 4d3d 7113 973d 09d6 36bb c3db b0ba
00000020: 1cb2 443c e490 f0bc 137d 1f3d 4b75 7739
00000030: 8b95 8e3c ba8a bdbb 7639 4f3c 3dc0 d9bd
00000040: 6272 18bc 81a9 f6ba 6e57 27bd fcf4 12bb
00000050: c3b3 5dbb 70e4 7b3d f8e0 c4bc 6e7d 253c
00000060: d6cb 2dbe 3b28 1b3d c4f4 e03a 6960 63bd
00000070: dea3 1f39 425c 6ab9 89c2 643c 1f80 5b3c
00000080: 9cad 3abc 31d8 05be 28ec 6abb 9f0e 223d
00000090: 5a9d 1f3c b607 fc39 aa82 19bc 200c 903c
000000a0: fbda d3bb 0a05 fa3c 45c5 283d ef80 c5ba
000000b0: 737c 9a3c d1c9 673d 52ae e53a ed5d a93d
000000c0: d599 d83d 191c ab3c 68dd 193d ffa2 38bc
000000d0: 7207 d63c b4b1 733c b2df f1ba 3e83 86bb
000000e0: 111d 04bc 0e9b d8bb ba05 9cbd c3b5 943b
000000f0: a1eb 2a3c 5785 8d3d dc68 dfbc 017e 143d
00000100: 9884 0a3d dc52 a13c 39d1 0dbc 8d07 9c3c
00000110: 753b 3b3d 158a 8d3c a6eb 113d 14b4 ac3c
00000120: bb9a 2b3d 60c9 2cbc 16fd 243c 12a2 fb3c
00000130: b75c d4bc 78c6 163d c520 143c b471 efbc
00000140: cded 8ebb 6251 0abd c325 85bc 9804 333c
00000150: 519e 3d3d fd59 abba d0a3 843b 3b6a 383d
00000160: fd86 e03c 7439 eb3d 0199 3bba e390 22bd
00000170: b18f 03b9 d5e1 fa3c 4547 673b 60cc 8bbd
00000180: d278 2e3c 8792 2d3c 1f1d a33d 7d10 cf39
00000190: 921a c33c 1438 9f3b 816b a6bb ab9c 063c
000001a0: cd53 b53d cba7 843c cf91 0c3d bb75 e13c
000001b0: a147 adbc 8c39 82ba 6a74 a03d 193e 9abc
000001c0: 896e 24bc ef7a fa3b 3706 f63a d6f0 9f3d
000001d0: 72a1 873c 9efd 863b a464 153d 26af 4cbc
000001e0: 0710 0bba 9b14 29bd 35b6 e53c 86a4 e93c
000001f0: 1058 d83c 55b7 31ba 0dfa 9cbd aa8d b6bd
00000200: c5e2 e3bc 969d 543c 5f32 71bb 8b66 43bd
00000210: 15a2 4d3d 7c1c 09be 5891 cdbc 78ec 06be
00000220: 973b dfbc eef1 503d aad7 5fbc 6f37 c03c
00000230: a1bb b1bb 7ad3 26bc d346 28bb 6bda e03c
00000240: 4de2 2fba a66b 07bd e8d5 82bc f936 b2bd
00000250: 0ba7 28bd dac6 4b3d c8e0 eebc 8cd2 aabb
00000260: 93ee a53c 9071 dabb 335b ac3c 2d69 b13c
00000270: bdaa 153b 45da 2f3d b007 5e3d a331 bfba
00000280: f867 233d 7ae3 e63c e6de 8cbb f173 833c
00000290: ce25 fb39 fe48 bb3a 5a66 ce3c 69d9 4dbb
000002a0: 4a0a 6fbd 6960 443d 4733 05bd 12b7 95bc
000002b0: ca18 1fbc 699c 623a f82c 05bd 67c5 3eba
000002c0: aa8c 123c 18cc a13c 4f70 17bd 1aa6 cd3c
000002d0: 9e97 823d 1395 ab3c 240c 833c 5647 86bd
000002e0: 79b3 3d3c 4e9f d9bd 7b7f 3fbd da02 203c
000002f0: 5349 b5ba 7def 853b 22ea 0fbd 0a25 9e3c
00000300: 3746 10bd 86d7 57bc 2b3f 843c 0f3a dd3d
00000310: 5c1f 2f3c 6205 79bb 4cdd 163d 91cf c5bd
00000320: 0d07 b6bb 6528 34bb 6c63 9a3a 6fb7 883a
00000330: 9f45 1ebb 390c 213d a3de 233d d180 fa3b
00000340: 337e 3e3c ba63 903c 54d9 b6bc 9ba8 e13b
00000350: 8e21 0d3d 8fb9 8d3b 5230 04bb 5b74 673b
00000360: 2ffb c13c 1873 d4bd e1e0 a03c 0e83 72ba
00000370: 25a4 1dbb ddc3 133d 4223 183c ee70 9b3b
00000380: 3c78 203b c453 ac3d 7f21 12bc 0bc8 363b
00000390: a0ba f23c 7de0 04bd bade 71bc 7d5c 07bd
000003a0: 87b2 c53d 6d36 4dbd 71b3 e83b 3894 213d
000003b0: d3ef dabb 3088 0c3c 0e5d 3dbb 6574 96bc
000003c0: 9037 103d 5699 0f3d 32f5 1abd 79cc 2cbc
000003d0: 258b 69bc bbaa 75bb 5566 3e3d 0742 e2bb
000003e0: cae1 853a d802 4d3b f46f 46bc 24c2 4d3b
000003f0: c355 16bc ae98 e73c f8f3 023d b1f6 453c
